node {
  name: "global_step/Initializer/zeros/shape_as_tensor"
  op: "Const"
  attr {
    key: "_class"
    value {
      list {
        s: "loc:@global_step"
      }
    }
  }
  attr {
    key: "_output_shapes"
    value {
      list {
        shape {
          dim {
          }
        }
      }
    }
  }
  attr {
    key: "dtype"
    value {
      type: DT_INT32
    }
  }
  attr {
    key: "value"
    value {
      tensor {
        dtype: DT_INT32
        tensor_shape {
          dim {
          }
        }
      }
    }
  }
}
node {
  name: "global_step/Initializer/zeros/Const"
  op: "Const"
  attr {
    key: "_class"
    value {
      list {
        s: "loc:@global_step"
      }
    }
  }
  attr {
    key: "_output_shapes"
    value {
      list {
        shape {
        }
      }
    }
  }
  attr {
    key: "dtype"
    value {
      type: DT_INT64
    }
  }
  attr {
    key: "value"
    value {
      tensor {
        dtype: DT_INT64
        tensor_shape {
        }
        int64_val: 0
      }
    }
  }
}
node {
  name: "global_step/Initializer/zeros"
  op: "Fill"
  input: "global_step/Initializer/zeros/shape_as_tensor"
  input: "global_step/Initializer/zeros/Const"
  attr {
    key: "T"
    value {
      type: DT_INT64
    }
  }
  attr {
    key: "_class"
    value {
      list {
        s: "loc:@global_step"
      }
    }
  }
  attr {
    key: "_output_shapes"
    value {
      list {
        shape {
        }
      }
    }
  }
  attr {
    key: "index_type"
    value {
      type: DT_INT32
    }
  }
}
node {
  name: "global_step"
  op: "VariableV2"
  attr {
    key: "_class"
    value {
      list {
        s: "loc:@global_step"
      }
    }
  }
  attr {
    key: "_output_shapes"
    value {
      list {
        shape {
        }
      }
    }
  }
  attr {
    key: "container"
    value {
      s: ""
    }
  }
  attr {
    key: "dtype"
    value {
      type: DT_INT64
    }
  }
  attr {
    key: "shape"
    value {
      shape {
      }
    }
  }
  attr {
    key: "shared_name"
    value {
      s: ""
    }
  }
}
node {
  name: "global_step/Assign"
  op: "Assign"
  input: "global_step"
  input: "global_step/Initializer/zeros"
  attr {
    key: "T"
    value {
      type: DT_INT64
    }
  }
  attr {
    key: "_class"
    value {
      list {
        s: "loc:@global_step"
      }
    }
  }
  attr {
    key: "_output_shapes"
    value {
      list {
        shape {
        }
      }
    }
  }
  attr {
    key: "use_locking"
    value {
      b: true
    }
  }
  attr {
    key: "validate_shape"
    value {
      b: true
    }
  }
}
node {
  name: "global_step/read"
  op: "Identity"
  input: "global_step"
  attr {
    key: "T"
    value {
      type: DT_INT64
    }
  }
  attr {
    key: "_class"
    value {
      list {
        s: "loc:@global_step"
      }
    }
  }
  attr {
    key: "_output_shapes"
    value {
      list {
        shape {
        }
      }
    }
  }
}
node {
  name: "global_step/IsVariableInitialized"
  op: "IsVariableInitialized"
  input: "global_step"
  attr {
    key: "_class"
    value {
      list {
        s: "loc:@global_step"
      }
    }
  }
  attr {
    key: "_output_shapes"
    value {
      list {
        shape {
        }
      }
    }
  }
  attr {
    key: "dtype"
    value {
      type: DT_INT64
    }
  }
}
node {
  name: "global_step/cond/Switch"
  op: "Switch"
  input: "global_step/IsVariableInitialized"
  input: "global_step/IsVariableInitialized"
  attr {
    key: "T"
    value {
      type: DT_BOOL
    }
  }
  attr {
    key: "_output_shapes"
    value {
      list {
        shape {
        }
        shape {
        }
      }
    }
  }
}
node {
  name: "global_step/cond/switch_t"
  op: "Identity"
  input: "global_step/cond/Switch:1"
  attr {
    key: "T"
    value {
      type: DT_BOOL
    }
  }
  attr {
    key: "_output_shapes"
    value {
      list {
        shape {
        }
      }
    }
  }
}
node {
  name: "global_step/cond/switch_f"
  op: "Identity"
  input: "global_step/cond/Switch"
  attr {
    key: "T"
    value {
      type: DT_BOOL
    }
  }
  attr {
    key: "_output_shapes"
    value {
      list {
        shape {
        }
      }
    }
  }
}
node {
  name: "global_step/cond/pred_id"
  op: "Identity"
  input: "global_step/IsVariableInitialized"
  attr {
    key: "T"
    value {
      type: DT_BOOL
    }
  }
  attr {
    key: "_output_shapes"
    value {
      list {
        shape {
        }
      }
    }
  }
}
node {
  name: "global_step/cond/read"
  op: "Identity"
  input: "global_step/cond/read/Switch:1"
  attr {
    key: "T"
    value {
      type: DT_INT64
    }
  }
  attr {
    key: "_output_shapes"
    value {
      list {
        shape {
        }
      }
    }
  }
}
node {
  name: "global_step/cond/read/Switch"
  op: "RefSwitch"
  input: "global_step"
  input: "global_step/cond/pred_id"
  attr {
    key: "T"
    value {
      type: DT_INT64
    }
  }
  attr {
    key: "_class"
    value {
      list {
        s: "loc:@global_step"
      }
    }
  }
  attr {
    key: "_output_shapes"
    value {
      list {
        shape {
        }
        shape {
        }
      }
    }
  }
}
node {
  name: "global_step/cond/Switch_1"
  op: "Switch"
  input: "global_step/Initializer/zeros"
  input: "global_step/cond/pred_id"
  attr {
    key: "T"
    value {
      type: DT_INT64
    }
  }
  attr {
    key: "_class"
    value {
      list {
        s: "loc:@global_step"
      }
    }
  }
  attr {
    key: "_output_shapes"
    value {
      list {
        shape {
        }
        shape {
        }
      }
    }
  }
}
node {
  name: "global_step/cond/Merge"
  op: "Merge"
  input: "global_step/cond/Switch_1"
  input: "global_step/cond/read"
  attr {
    key: "N"
    value {
      i: 2
    }
  }
  attr {
    key: "T"
    value {
      type: DT_INT64
    }
  }
  attr {
    key: "_output_shapes"
    value {
      list {
        shape {
        }
        shape {
        }
      }
    }
  }
}
node {
  name: "global_step/add/y"
  op: "Const"
  attr {
    key: "_output_shapes"
    value {
      list {
        shape {
        }
      }
    }
  }
  attr {
    key: "dtype"
    value {
      type: DT_INT64
    }
  }
  attr {
    key: "value"
    value {
      tensor {
        dtype: DT_INT64
        tensor_shape {
        }
        int64_val: 0
      }
    }
  }
}
node {
  name: "global_step/add"
  op: "Add"
  input: "global_step/cond/Merge"
  input: "global_step/add/y"
  attr {
    key: "T"
    value {
      type: DT_INT64
    }
  }
  attr {
    key: "_output_shapes"
    value {
      list {
        shape {
        }
      }
    }
  }
}
node {
  name: "tensors/component_0"
  op: "Const"
  device: "/device:CPU:0"
  attr {
    key: "_output_shapes"
    value {
      list {
        shape {
          dim {
            size: 1024
          }
        }
      }
    }
  }
  attr {
    key: "dtype"
    value {
      type: DT_STRING
    }
  }
  attr {
    key: "value"
    value {
      tensor {
        dtype: DT_STRING
        tensor_shape {
          dim {
            size: 1024
          }
        }
        string_val: "/home/tony/tflite/datasets/imagenet/train-00000-of-01024"
        string_val: "/home/tony/tflite/datasets/imagenet/train-00001-of-01024"
        string_val: "/home/tony/tflite/datasets/imagenet/train-00002-of-01024"
        string_val: "/home/tony/tflite/datasets/imagenet/train-00003-of-01024"
        string_val: "/home/tony/tflite/datasets/imagenet/train-00004-of-01024"
        string_val: "/home/tony/tflite/datasets/imagenet/train-00005-of-01024"
        string_val: "/home/tony/tflite/datasets/imagenet/train-00006-of-01024"
        string_val: "/home/tony/tflite/datasets/imagenet/train-00007-of-01024"
        string_val: "/home/tony/tflite/datasets/imagenet/train-00008-of-01024"
        string_val: "/home/tony/tflite/datasets/imagenet/train-00009-of-01024"
        string_val: "/home/tony/tflite/datasets/imagenet/train-00010-of-01024"
        string_val: "/home/tony/tflite/datasets/imagenet/train-00011-of-01024"
        string_val: "/home/tony/tflite/datasets/imagenet/train-00012-of-01024"
        string_val: "/home/tony/tflite/datasets/imagenet/train-00013-of-01024"
        string_val: "/home/tony/tflite/datasets/imagenet/train-00014-of-01024"
        string_val: "/home/tony/tflite/datasets/imagenet/train-00015-of-01024"
        string_val: "/home/tony/tflite/datasets/imagenet/train-00016-of-01024"
        string_val: "/home/tony/tflite/datasets/imagenet/train-00017-of-01024"
        string_val: "/home/tony/tflite/datasets/imagenet/train-00018-of-01024"
        string_val: "/home/tony/tflite/datasets/imagenet/train-00019-of-01024"
        string_val: "/home/tony/tflite/datasets/imagenet/train-00020-of-01024"
        string_val: "/home/tony/tflite/datasets/imagenet/train-00021-of-01024"
        string_val: "/home/tony/tflite/datasets/imagenet/train-00022-of-01024"
        string_val: "/home/tony/tflite/datasets/imagenet/train-00023-of-01024"
        string_val: "/home/tony/tflite/datasets/imagenet/train-00024-of-01024"
        string_val: "/home/tony/tflite/datasets/imagenet/train-00025-of-01024"
        string_val: "/home/tony/tflite/datasets/imagenet/train-00026-of-01024"
        string_val: "/home/tony/tflite/datasets/imagenet/train-00027-of-01024"
        string_val: "/home/tony/tflite/datasets/imagenet/train-00028-of-01024"
        string_val: "/home/tony/tflite/datasets/imagenet/train-00029-of-01024"
        string_val: "/home/tony/tflite/datasets/imagenet/train-00030-of-01024"
        string_val: "/home/tony/tflite/datasets/imagenet/train-00031-of-01024"
        string_val: "/home/tony/tflite/datasets/imagenet/train-00032-of-01024"
        string_val: "/home/tony/tflite/datasets/imagenet/train-00033-of-01024"
        string_val: "/home/tony/tflite/datasets/imagenet/train-00034-of-01024"
        string_val: "/home/tony/tflite/datasets/imagenet/train-00035-of-01024"
        string_val: "/home/tony/tflite/datasets/imagenet/train-00036-of-01024"
        string_val: "/home/tony/tflite/datasets/imagenet/train-00037-of-01024"
        string_val: "/home/tony/tflite/datasets/imagenet/train-00038-of-01024"
        string_val: "/home/tony/tflite/datasets/imagenet/train-00039-of-01024"
        string_val: "/home/tony/tflite/datasets/imagenet/train-00040-of-01024"
        string_val: "/home/tony/tflite/datasets/imagenet/train-00041-of-01024"
        string_val: "/home/tony/tflite/datasets/imagenet/train-00042-of-01024"
        string_val: "/home/tony/tflite/datasets/imagenet/train-00043-of-01024"
        string_val: "/home/tony/tflite/datasets/imagenet/train-00044-of-01024"
        string_val: "/home/tony/tflite/datasets/imagenet/train-00045-of-01024"
        string_val: "/home/tony/tflite/datasets/imagenet/train-00046-of-01024"
        string_val: "/home/tony/tflite/datasets/imagenet/train-00047-of-01024"
        string_val: "/home/tony/tflite/datasets/imagenet/train-00048-of-01024"
        string_val: "/home/tony/tflite/datasets/imagenet/train-00049-of-01024"
        string_val: "/home/tony/tflite/datasets/imagenet/train-00050-of-01024"
        string_val: "/home/tony/tflite/datasets/imagenet/train-00051-of-01024"
        string_val: "/home/tony/tflite/datasets/imagenet/train-00052-of-01024"
        string_val: "/home/tony/tflite/datasets/imagenet/train-00053-of-01024"
        string_val: "/home/tony/tflite/datasets/imagenet/train-00054-of-01024"
        string_val: "/home/tony/tflite/datasets/imagenet/train-00055-of-01024"
        string_val: "/home/tony/tflite/datasets/imagenet/train-00056-of-01024"
        string_val: "/home/tony/tflite/datasets/imagenet/train-00057-of-01024"
        string_val: "/home/tony/tflite/datasets/imagenet/train-00058-of-01024"
        string_val: "/home/tony/tflite/datasets/imagenet/train-00059-of-01024"
        string_val: "/home/tony/tflite/datasets/imagenet/train-00060-of-01024"
        string_val: "/home/tony/tflite/datasets/imagenet/train-00061-of-01024"
        string_val: "/home/tony/tflite/datasets/imagenet/train-00062-of-01024"
        string_val: "/home/tony/tflite/datasets/imagenet/train-00063-of-01024"
        string_val: "/home/tony/tflite/datasets/imagenet/train-00064-of-01024"
        string_val: "/home/tony/tflite/datasets/imagenet/train-00065-of-01024"
        string_val: "/home/tony/tflite/datasets/imagenet/train-00066-of-01024"
        string_val: "/home/tony/tflite/datasets/imagenet/train-00067-of-01024"
        string_val: "/home/tony/tflite/datasets/imagenet/train-00068-of-01024"
        string_val: "/home/tony/tflite/datasets/imagenet/train-00069-of-01024"
        string_val: "/home/tony/tflite/datasets/imagenet/train-00070-of-01024"
        string_val: "/home/tony/tflite/datasets/imagenet/train-00071-of-01024"
        string_val: "/home/tony/tflite/datasets/imagenet/train-00072-of-01024"
        string_val: "/home/tony/tflite/datasets/imagenet/train-00073-of-01024"
        string_val: "/home/tony/tflite/datasets/imagenet/train-00074-of-01024"
        string_val: "/home/tony/tflite/datasets/imagenet/train-00075-of-01024"
        string_val: "/home/tony/tflite/datasets/imagenet/train-00076-of-01024"
        string_val: "/home/tony/tflite/datasets/imagenet/train-00077-of-01024"
        string_val: "/home/tony/tflite/datasets/imagenet/train-00078-of-01024"
        string_val: "/home/tony/tflite/datasets/imagenet/train-00079-of-01024"
        string_val: "/home/tony/tflite/datasets/imagenet/train-00080-of-01024"
        string_val: "/home/tony/tflite/datasets/imagenet/train-00081-of-01024"
        string_val: "/home/tony/tflite/datasets/imagenet/train-00082-of-01024"
        string_val: "/home/tony/tflite/datasets/imagenet/train-00083-of-01024"
        string_val: "/home/tony/tflite/datasets/imagenet/train-00084-of-01024"
        string_val: "/home/tony/tflite/datasets/imagenet/train-00085-of-01024"
        string_val: "/home/tony/tflite/datasets/imagenet/train-00086-of-01024"
        string_val: "/home/tony/tflite/datasets/imagenet/train-00087-of-01024"
        string_val: "/home/tony/tflite/datasets/imagenet/train-00088-of-01024"
        string_val: "/home/tony/tflite/datasets/imagenet/train-00089-of-01024"
        string_val: "/home/tony/tflite/datasets/imagenet/train-00090-of-01024"
        string_val: "/home/tony/tflite/datasets/imagenet/train-00091-of-01024"
        string_val: "/home/tony/tflite/datasets/imagenet/train-00092-of-01024"
        string_val: "/home/tony/tflite/datasets/imagenet/train-00093-of-01024"
        string_val: "/home/tony/tflite/datasets/imagenet/train-00094-of-01024"
        string_val: "/home/tony/tflite/datasets/imagenet/train-00095-of-01024"
        string_val: "/home/tony/tflite/datasets/imagenet/train-00096-of-01024"
        string_val: "/home/tony/tflite/datasets/imagenet/train-00097-of-01024"
        string_val: "/home/tony/tflite/datasets/imagenet/train-00098-of-01024"
        string_val: "/home/tony/tflite/datasets/imagenet/train-00099-of-01024"
        string_val: "/home/tony/tflite/datasets/imagenet/train-00100-of-01024"
        string_val: "/home/tony/tflite/datasets/imagenet/train-00101-of-01024"
        string_val: "/home/tony/tflite/datasets/imagenet/train-00102-of-01024"
        string_val: "/home/tony/tflite/datasets/imagenet/train-00103-of-01024"
        string_val: "/home/tony/tflite/datasets/imagenet/train-00104-of-01024"
        string_val: "/home/tony/tflite/datasets/imagenet/train-00105-of-01024"
        string_val: "/home/tony/tflite/datasets/imagenet/train-00106-of-01024"
        string_val: "/home/tony/tflite/datasets/imagenet/train-00107-of-01024"
        string_val: "/home/tony/tflite/datasets/imagenet/train-00108-of-01024"
        string_val: "/home/tony/tflite/datasets/imagenet/train-00109-of-01024"
        string_val: "/home/tony/tflite/datasets/imagenet/train-00110-of-01024"
        string_val: "/home/tony/tflite/datasets/imagenet/train-00111-of-01024"
        string_val: "/home/tony/tflite/datasets/imagenet/train-00112-of-01024"
        string_val: "/home/tony/tflite/datasets/imagenet/train-00113-of-01024"
        string_val: "/home/tony/tflite/datasets/imagenet/train-00114-of-01024"
        string_val: "/home/tony/tflite/datasets/imagenet/train-00115-of-01024"
        string_val: "/home/tony/tflite/datasets/imagenet/train-00116-of-01024"
        string_val: "/home/tony/tflite/datasets/imagenet/train-00117-of-01024"
        string_val: "/home/tony/tflite/datasets/imagenet/train-00118-of-01024"
        string_val: "/home/tony/tflite/datasets/imagenet/train-00119-of-01024"
        string_val: "/home/tony/tflite/datasets/imagenet/train-00120-of-01024"
        string_val: "/home/tony/tflite/datasets/imagenet/train-00121-of-01024"
        string_val: "/home/tony/tflite/datasets/imagenet/train-00122-of-01024"
        string_val: "/home/tony/tflite/datasets/imagenet/train-00123-of-01024"
        string_val: "/home/tony/tflite/datasets/imagenet/train-00124-of-01024"
        string_val: "/home/tony/tflite/datasets/imagenet/train-00125-of-01024"
        string_val: "/home/tony/tflite/datasets/imagenet/train-00126-of-01024"
        string_val: "/home/tony/tflite/datasets/imagenet/train-00127-of-01024"
        string_val: "/home/tony/tflite/datasets/imagenet/train-00128-of-01024"
        string_val: "/home/tony/tflite/datasets/imagenet/train-00129-of-01024"
        string_val: "/home/tony/tflite/datasets/imagenet/train-00130-of-01024"
        string_val: "/home/tony/tflite/datasets/imagenet/train-00131-of-01024"
        string_val: "/home/tony/tflite/datasets/imagenet/train-00132-of-01024"
        string_val: "/home/tony/tflite/datasets/imagenet/train-00133-of-01024"
        string_val: "/home/tony/tflite/datasets/imagenet/train-00134-of-01024"
        string_val: "/home/tony/tflite/datasets/imagenet/train-00135-of-01024"
        string_val: "/home/tony/tflite/datasets/imagenet/train-00136-of-01024"
        string_val: "/home/tony/tflite/datasets/imagenet/train-00137-of-01024"
        string_val: "/home/tony/tflite/datasets/imagenet/train-00138-of-01024"
        string_val: "/home/tony/tflite/datasets/imagenet/train-00139-of-01024"
        string_val: "/home/tony/tflite/datasets/imagenet/train-00140-of-01024"
        string_val: "/home/tony/tflite/datasets/imagenet/train-00141-of-01024"
        string_val: "/home/tony/tflite/datasets/imagenet/train-00142-of-01024"
        string_val: "/home/tony/tflite/datasets/imagenet/train-00143-of-01024"
        string_val: "/home/tony/tflite/datasets/imagenet/train-00144-of-01024"
        string_val: "/home/tony/tflite/datasets/imagenet/train-00145-of-01024"
        string_val: "/home/tony/tflite/datasets/imagenet/train-00146-of-01024"
        string_val: "/home/tony/tflite/datasets/imagenet/train-00147-of-01024"
        string_val: "/home/tony/tflite/datasets/imagenet/train-00148-of-01024"
        string_val: "/home/tony/tflite/datasets/imagenet/train-00149-of-01024"
        string_val: "/home/tony/tflite/datasets/imagenet/train-00150-of-01024"
        string_val: "/home/tony/tflite/datasets/imagenet/train-00151-of-01024"
        string_val: "/home/tony/tflite/datasets/imagenet/train-00152-of-01024"
        string_val: "/home/tony/tflite/datasets/imagenet/train-00153-of-01024"
        string_val: "/home/tony/tflite/datasets/imagenet/train-00154-of-01024"
        string_val: "/home/tony/tflite/datasets/imagenet/train-00155-of-01024"
        string_val: "/home/tony/tflite/datasets/imagenet/train-00156-of-01024"
        string_val: "/home/tony/tflite/datasets/imagenet/train-00157-of-01024"
        string_val: "/home/tony/tflite/datasets/imagenet/train-00158-of-01024"
        string_val: "/home/tony/tflite/datasets/imagenet/train-00159-of-01024"
        string_val: "/home/tony/tflite/datasets/imagenet/train-00160-of-01024"
        string_val: "/home/tony/tflite/datasets/imagenet/train-00161-of-01024"
        string_val: "/home/tony/tflite/datasets/imagenet/train-00162-of-01024"
        string_val: "/home/tony/tflite/datasets/imagenet/train-00163-of-01024"
        string_val: "/home/tony/tflite/datasets/imagenet/train-00164-of-01024"
        string_val: "/home/tony/tflite/datasets/imagenet/train-00165-of-01024"
        string_val: "/home/tony/tflite/datasets/imagenet/train-00166-of-01024"
        string_val: "/home/tony/tflite/datasets/imagenet/train-00167-of-01024"
        string_val: "/home/tony/tflite/datasets/imagenet/train-00168-of-01024"
        string_val: "/home/tony/tflite/datasets/imagenet/train-00169-of-01024"
        string_val: "/home/tony/tflite/datasets/imagenet/train-00170-of-01024"
        string_val: "/home/tony/tflite/datasets/imagenet/train-00171-of-01024"
        string_val: "/home/tony/tflite/datasets/imagenet/train-00172-of-01024"
        string_val: "/home/tony/tflite/datasets/imagenet/train-00173-of-01024"
        string_val: "/home/tony/tflite/datasets/imagenet/train-00174-of-01024"
        string_val: "/home/tony/tflite/datasets/imagenet/train-00175-of-01024"
        string_val: "/home/tony/tflite/datasets/imagenet/train-00176-of-01024"
        string_val: "/home/tony/tflite/datasets/imagenet/train-00177-of-01024"
        string_val: "/home/tony/tflite/datasets/imagenet/train-00178-of-01024"
        string_val: "/home/tony/tflite/datasets/imagenet/train-00179-of-01024"
        string_val: "/home/tony/tflite/datasets/imagenet/train-00180-of-01024"
        string_val: "/home/tony/tflite/datasets/imagenet/train-00181-of-01024"
        string_val: "/home/tony/tflite/datasets/imagenet/train-00182-of-01024"
        string_val: "/home/tony/tflite/datasets/imagenet/train-00183-of-01024"
        string_val: "/home/tony/tflite/datasets/imagenet/train-00184-of-01024"
        string_val: "/home/tony/tflite/datasets/imagenet/train-00185-of-01024"
        string_val: "/home/tony/tflite/datasets/imagenet/train-00186-of-01024"
        string_val: "/home/tony/tflite/datasets/imagenet/train-00187-of-01024"
        string_val: "/home/tony/tflite/datasets/imagenet/train-00188-of-01024"
        string_val: "/home/tony/tflite/datasets/imagenet/train-00189-of-01024"
        string_val: "/home/tony/tflite/datasets/imagenet/train-00190-of-01024"
        string_val: "/home/tony/tflite/datasets/imagenet/train-00191-of-01024"
        string_val: "/home/tony/tflite/datasets/imagenet/train-00192-of-01024"
        string_val: "/home/tony/tflite/datasets/imagenet/train-00193-of-01024"
        string_val: "/home/tony/tflite/datasets/imagenet/train-00194-of-01024"
        string_val: "/home/tony/tflite/datasets/imagenet/train-00195-of-01024"
        string_val: "/home/tony/tflite/datasets/imagenet/train-00196-of-01024"
        string_val: "/home/tony/tflite/datasets/imagenet/train-00197-of-01024"
        string_val: "/home/tony/tflite/datasets/imagenet/train-00198-of-01024"
        string_val: "/home/tony/tflite/datasets/imagenet/train-00199-of-01024"
        string_val: "/home/tony/tflite/datasets/imagenet/train-00200-of-01024"
        string_val: "/home/tony/tflite/datasets/imagenet/train-00201-of-01024"
        string_val: "/home/tony/tflite/datasets/imagenet/train-00202-of-01024"
        string_val: "/home/tony/tflite/datasets/imagenet/train-00203-of-01024"
        string_val: "/home/tony/tflite/datasets/imagenet/train-00204-of-01024"
        string_val: "/home/tony/tflite/datasets/imagenet/train-00205-of-01024"
        string_val: "/home/tony/tflite/datasets/imagenet/train-00206-of-01024"
        string_val: "/home/tony/tflite/datasets/imagenet/train-00207-of-01024"
        string_val: "/home/tony/tflite/datasets/imagenet/train-00208-of-01024"
        string_val: "/home/tony/tflite/datasets/imagenet/train-00209-of-01024"
        string_val: "/home/tony/tflite/datasets/imagenet/train-00210-of-01024"
        string_val: "/home/tony/tflite/datasets/imagenet/train-00211-of-01024"
        string_val: "/home/tony/tflite/datasets/imagenet/train-00212-of-01024"
        string_val: "/home/tony/tflite/datasets/imagenet/train-00213-of-01024"
        string_val: "/home/tony/tflite/datasets/imagenet/train-00214-of-01024"
        string_val: "/home/tony/tflite/datasets/imagenet/train-00215-of-01024"
        string_val: "/home/tony/tflite/datasets/imagenet/train-00216-of-01024"
        string_val: "/home/tony/tflite/datasets/imagenet/train-00217-of-01024"
        string_val: "/home/tony/tflite/datasets/imagenet/train-00218-of-01024"
        string_val: "/home/tony/tflite/datasets/imagenet/train-00219-of-01024"
        string_val: "/home/tony/tflite/datasets/imagenet/train-00220-of-01024"
        string_val: "/home/tony/tflite/datasets/imagenet/train-00221-of-01024"
        string_val: "/home/tony/tflite/datasets/imagenet/train-00222-of-01024"
        string_val: "/home/tony/tflite/datasets/imagenet/train-00223-of-01024"
        string_val: "/home/tony/tflite/datasets/imagenet/train-00224-of-01024"
        string_val: "/home/tony/tflite/datasets/imagenet/train-00225-of-01024"
        string_val: "/home/tony/tflite/datasets/imagenet/train-00226-of-01024"
        string_val: "/home/tony/tflite/datasets/imagenet/train-00227-of-01024"
        string_val: "/home/tony/tflite/datasets/imagenet/train-00228-of-01024"
        string_val: "/home/tony/tflite/datasets/imagenet/train-00229-of-01024"
        string_val: "/home/tony/tflite/datasets/imagenet/train-00230-of-01024"
        string_val: "/home/tony/tflite/datasets/imagenet/train-00231-of-01024"
        string_val: "/home/tony/tflite/datasets/imagenet/train-00232-of-01024"
        string_val: "/home/tony/tflite/datasets/imagenet/train-00233-of-01024"
        string_val: "/home/tony/tflite/datasets/imagenet/train-00234-of-01024"
        string_val: "/home/tony/tflite/datasets/imagenet/train-00235-of-01024"
        string_val: "/home/tony/tflite/datasets/imagenet/train-00236-of-01024"
        string_val: "/home/tony/tflite/datasets/imagenet/train-00237-of-01024"
        string_val: "/home/tony/tflite/datasets/imagenet/train-00238-of-01024"
        string_val: "/home/tony/tflite/datasets/imagenet/train-00239-of-01024"
        string_val: "/home/tony/tflite/datasets/imagenet/train-00240-of-01024"
        string_val: "/home/tony/tflite/datasets/imagenet/train-00241-of-01024"
        string_val: "/home/tony/tflite/datasets/imagenet/train-00242-of-01024"
        string_val: "/home/tony/tflite/datasets/imagenet/train-00243-of-01024"
        string_val: "/home/tony/tflite/datasets/imagenet/train-00244-of-01024"
        string_val: "/home/tony/tflite/datasets/imagenet/train-00245-of-01024"
        string_val: "/home/tony/tflite/datasets/imagenet/train-00246-of-01024"
        string_val: "/home/tony/tflite/datasets/imagenet/train-00247-of-01024"
        string_val: "/home/tony/tflite/datasets/imagenet/train-00248-of-01024"
        string_val: "/home/tony/tflite/datasets/imagenet/train-00249-of-01024"
        string_val: "/home/tony/tflite/datasets/imagenet/train-00250-of-01024"
        string_val: "/home/tony/tflite/datasets/imagenet/train-00251-of-01024"
        string_val: "/home/tony/tflite/datasets/imagenet/train-00252-of-01024"
        string_val: "/home/tony/tflite/datasets/imagenet/train-00253-of-01024"
        string_val: "/home/tony/tflite/datasets/imagenet/train-00254-of-01024"
        string_val: "/home/tony/tflite/datasets/imagenet/train-00255-of-01024"
        string_val: "/home/tony/tflite/datasets/imagenet/train-00256-of-01024"
        string_val: "/home/tony/tflite/datasets/imagenet/train-00257-of-01024"
        string_val: "/home/tony/tflite/datasets/imagenet/train-00258-of-01024"
        string_val: "/home/tony/tflite/datasets/imagenet/train-00259-of-01024"
        string_val: "/home/tony/tflite/datasets/imagenet/train-00260-of-01024"
        string_val: "/home/tony/tflite/datasets/imagenet/train-00261-of-01024"
        string_val: "/home/tony/tflite/datasets/imagenet/train-00262-of-01024"
        string_val: "/home/tony/tflite/datasets/imagenet/train-00263-of-01024"
        string_val: "/home/tony/tflite/datasets/imagenet/train-00264-of-01024"
        string_val: "/home/tony/tflite/datasets/imagenet/train-00265-of-01024"
        string_val: "/home/tony/tflite/datasets/imagenet/train-00266-of-01024"
        string_val: "/home/tony/tflite/datasets/imagenet/train-00267-of-01024"
        string_val: "/home/tony/tflite/datasets/imagenet/train-00268-of-01024"
        string_val: "/home/tony/tflite/datasets/imagenet/train-00269-of-01024"
        string_val: "/home/tony/tflite/datasets/imagenet/train-00270-of-01024"
        string_val: "/home/tony/tflite/datasets/imagenet/train-00271-of-01024"
        string_val: "/home/tony/tflite/datasets/imagenet/train-00272-of-01024"
        string_val: "/home/tony/tflite/datasets/imagenet/train-00273-of-01024"
        string_val: "/home/tony/tflite/datasets/imagenet/train-00274-of-01024"
        string_val: "/home/tony/tflite/datasets/imagenet/train-00275-of-01024"
        string_val: "/home/tony/tflite/datasets/imagenet/train-00276-of-01024"
        string_val: "/home/tony/tflite/datasets/imagenet/train-00277-of-01024"
        string_val: "/home/tony/tflite/datasets/imagenet/train-00278-of-01024"
        string_val: "/home/tony/tflite/datasets/imagenet/train-00279-of-01024"
        string_val: "/home/tony/tflite/datasets/imagenet/train-00280-of-01024"
        string_val: "/home/tony/tflite/datasets/imagenet/train-00281-of-01024"
        string_val: "/home/tony/tflite/datasets/imagenet/train-00282-of-01024"
        string_val: "/home/tony/tflite/datasets/imagenet/train-00283-of-01024"
        string_val: "/home/tony/tflite/datasets/imagenet/train-00284-of-01024"
        string_val: "/home/tony/tflite/datasets/imagenet/train-00285-of-01024"
        string_val: "/home/tony/tflite/datasets/imagenet/train-00286-of-01024"
        string_val: "/home/tony/tflite/datasets/imagenet/train-00287-of-01024"
        string_val: "/home/tony/tflite/datasets/imagenet/train-00288-of-01024"
        string_val: "/home/tony/tflite/datasets/imagenet/train-00289-of-01024"
        string_val: "/home/tony/tflite/datasets/imagenet/train-00290-of-01024"
        string_val: "/home/tony/tflite/datasets/imagenet/train-00291-of-01024"
        string_val: "/home/tony/tflite/datasets/imagenet/train-00292-of-01024"
        string_val: "/home/tony/tflite/datasets/imagenet/train-00293-of-01024"
        string_val: "/home/tony/tflite/datasets/imagenet/train-00294-of-01024"
        string_val: "/home/tony/tflite/datasets/imagenet/train-00295-of-01024"
        string_val: "/home/tony/tflite/datasets/imagenet/train-00296-of-01024"
        string_val: "/home/tony/tflite/datasets/imagenet/train-00297-of-01024"
        string_val: "/home/tony/tflite/datasets/imagenet/train-00298-of-01024"
        string_val: "/home/tony/tflite/datasets/imagenet/train-00299-of-01024"
        string_val: "/home/tony/tflite/datasets/imagenet/train-00300-of-01024"
        string_val: "/home/tony/tflite/datasets/imagenet/train-00301-of-01024"
        string_val: "/home/tony/tflite/datasets/imagenet/train-00302-of-01024"
        string_val: "/home/tony/tflite/datasets/imagenet/train-00303-of-01024"
        string_val: "/home/tony/tflite/datasets/imagenet/train-00304-of-01024"
        string_val: "/home/tony/tflite/datasets/imagenet/train-00305-of-01024"
        string_val: "/home/tony/tflite/datasets/imagenet/train-00306-of-01024"
        string_val: "/home/tony/tflite/datasets/imagenet/train-00307-of-01024"
        string_val: "/home/tony/tflite/datasets/imagenet/train-00308-of-01024"
        string_val: "/home/tony/tflite/datasets/imagenet/train-00309-of-01024"
        string_val: "/home/tony/tflite/datasets/imagenet/train-00310-of-01024"
        string_val: "/home/tony/tflite/datasets/imagenet/train-00311-of-01024"
        string_val: "/home/tony/tflite/datasets/imagenet/train-00312-of-01024"
        string_val: "/home/tony/tflite/datasets/imagenet/train-00313-of-01024"
        string_val: "/home/tony/tflite/datasets/imagenet/train-00314-of-01024"
        string_val: "/home/tony/tflite/datasets/imagenet/train-00315-of-01024"
        string_val: "/home/tony/tflite/datasets/imagenet/train-00316-of-01024"
        string_val: "/home/tony/tflite/datasets/imagenet/train-00317-of-01024"
        string_val: "/home/tony/tflite/datasets/imagenet/train-00318-of-01024"
        string_val: "/home/tony/tflite/datasets/imagenet/train-00319-of-01024"
        string_val: "/home/tony/tflite/datasets/imagenet/train-00320-of-01024"
        string_val: "/home/tony/tflite/datasets/imagenet/train-00321-of-01024"
        string_val: "/home/tony/tflite/datasets/imagenet/train-00322-of-01024"
        string_val: "/home/tony/tflite/datasets/imagenet/train-00323-of-01024"
        string_val: "/home/tony/tflite/datasets/imagenet/train-00324-of-01024"
        string_val: "/home/tony/tflite/datasets/imagenet/train-00325-of-01024"
        string_val: "/home/tony/tflite/datasets/imagenet/train-00326-of-01024"
        string_val: "/home/tony/tflite/datasets/imagenet/train-00327-of-01024"
        string_val: "/home/tony/tflite/datasets/imagenet/train-00328-of-01024"
        string_val: "/home/tony/tflite/datasets/imagenet/train-00329-of-01024"
        string_val: "/home/tony/tflite/datasets/imagenet/train-00330-of-01024"
        string_val: "/home/tony/tflite/datasets/imagenet/train-00331-of-01024"
        string_val: "/home/tony/tflite/datasets/imagenet/train-00332-of-01024"
        string_val: "/home/tony/tflite/datasets/imagenet/train-00333-of-01024"
        string_val: "/home/tony/tflite/datasets/imagenet/train-00334-of-01024"
        string_val: "/home/tony/tflite/datasets/imagenet/train-00335-of-01024"
        string_val: "/home/tony/tflite/datasets/imagenet/train-00336-of-01024"
        string_val: "/home/tony/tflite/datasets/imagenet/train-00337-of-01024"
        string_val: "/home/tony/tflite/datasets/imagenet/train-00338-of-01024"
        string_val: "/home/tony/tflite/datasets/imagenet/train-00339-of-01024"
        string_val: "/home/tony/tflite/datasets/imagenet/train-00340-of-01024"
        string_val: "/home/tony/tflite/datasets/imagenet/train-00341-of-01024"
        string_val: "/home/tony/tflite/datasets/imagenet/train-00342-of-01024"
        string_val: "/home/tony/tflite/datasets/imagenet/train-00343-of-01024"
        string_val: "/home/tony/tflite/datasets/imagenet/train-00344-of-01024"
        string_val: "/home/tony/tflite/datasets/imagenet/train-00345-of-01024"
        string_val: "/home/tony/tflite/datasets/imagenet/train-00346-of-01024"
        string_val: "/home/tony/tflite/datasets/imagenet/train-00347-of-01024"
        string_val: "/home/tony/tflite/datasets/imagenet/train-00348-of-01024"
        string_val: "/home/tony/tflite/datasets/imagenet/train-00349-of-01024"
        string_val: "/home/tony/tflite/datasets/imagenet/train-00350-of-01024"
        string_val: "/home/tony/tflite/datasets/imagenet/train-00351-of-01024"
        string_val: "/home/tony/tflite/datasets/imagenet/train-00352-of-01024"
        string_val: "/home/tony/tflite/datasets/imagenet/train-00353-of-01024"
        string_val: "/home/tony/tflite/datasets/imagenet/train-00354-of-01024"
        string_val: "/home/tony/tflite/datasets/imagenet/train-00355-of-01024"
        string_val: "/home/tony/tflite/datasets/imagenet/train-00356-of-01024"
        string_val: "/home/tony/tflite/datasets/imagenet/train-00357-of-01024"
        string_val: "/home/tony/tflite/datasets/imagenet/train-00358-of-01024"
        string_val: "/home/tony/tflite/datasets/imagenet/train-00359-of-01024"
        string_val: "/home/tony/tflite/datasets/imagenet/train-00360-of-01024"
        string_val: "/home/tony/tflite/datasets/imagenet/train-00361-of-01024"
        string_val: "/home/tony/tflite/datasets/imagenet/train-00362-of-01024"
        string_val: "/home/tony/tflite/datasets/imagenet/train-00363-of-01024"
        string_val: "/home/tony/tflite/datasets/imagenet/train-00364-of-01024"
        string_val: "/home/tony/tflite/datasets/imagenet/train-00365-of-01024"
        string_val: "/home/tony/tflite/datasets/imagenet/train-00366-of-01024"
        string_val: "/home/tony/tflite/datasets/imagenet/train-00367-of-01024"
        string_val: "/home/tony/tflite/datasets/imagenet/train-00368-of-01024"
        string_val: "/home/tony/tflite/datasets/imagenet/train-00369-of-01024"
        string_val: "/home/tony/tflite/datasets/imagenet/train-00370-of-01024"
        string_val: "/home/tony/tflite/datasets/imagenet/train-00371-of-01024"
        string_val: "/home/tony/tflite/datasets/imagenet/train-00372-of-01024"
        string_val: "/home/tony/tflite/datasets/imagenet/train-00373-of-01024"
        string_val: "/home/tony/tflite/datasets/imagenet/train-00374-of-01024"
        string_val: "/home/tony/tflite/datasets/imagenet/train-00375-of-01024"
        string_val: "/home/tony/tflite/datasets/imagenet/train-00376-of-01024"
        string_val: "/home/tony/tflite/datasets/imagenet/train-00377-of-01024"
        string_val: "/home/tony/tflite/datasets/imagenet/train-00378-of-01024"
        string_val: "/home/tony/tflite/datasets/imagenet/train-00379-of-01024"
        string_val: "/home/tony/tflite/datasets/imagenet/train-00380-of-01024"
        string_val: "/home/tony/tflite/datasets/imagenet/train-00381-of-01024"
        string_val: "/home/tony/tflite/datasets/imagenet/train-00382-of-01024"
        string_val: "/home/tony/tflite/datasets/imagenet/train-00383-of-01024"
        string_val: "/home/tony/tflite/datasets/imagenet/train-00384-of-01024"
        string_val: "/home/tony/tflite/datasets/imagenet/train-00385-of-01024"
        string_val: "/home/tony/tflite/datasets/imagenet/train-00386-of-01024"
        string_val: "/home/tony/tflite/datasets/imagenet/train-00387-of-01024"
        string_val: "/home/tony/tflite/datasets/imagenet/train-00388-of-01024"
        string_val: "/home/tony/tflite/datasets/imagenet/train-00389-of-01024"
        string_val: "/home/tony/tflite/datasets/imagenet/train-00390-of-01024"
        string_val: "/home/tony/tflite/datasets/imagenet/train-00391-of-01024"
        string_val: "/home/tony/tflite/datasets/imagenet/train-00392-of-01024"
        string_val: "/home/tony/tflite/datasets/imagenet/train-00393-of-01024"
        string_val: "/home/tony/tflite/datasets/imagenet/train-00394-of-01024"
        string_val: "/home/tony/tflite/datasets/imagenet/train-00395-of-01024"
        string_val: "/home/tony/tflite/datasets/imagenet/train-00396-of-01024"
        string_val: "/home/tony/tflite/datasets/imagenet/train-00397-of-01024"
        string_val: "/home/tony/tflite/datasets/imagenet/train-00398-of-01024"
        string_val: "/home/tony/tflite/datasets/imagenet/train-00399-of-01024"
        string_val: "/home/tony/tflite/datasets/imagenet/train-00400-of-01024"
        string_val: "/home/tony/tflite/datasets/imagenet/train-00401-of-01024"
        string_val: "/home/tony/tflite/datasets/imagenet/train-00402-of-01024"
        string_val: "/home/tony/tflite/datasets/imagenet/train-00403-of-01024"
        string_val: "/home/tony/tflite/datasets/imagenet/train-00404-of-01024"
        string_val: "/home/tony/tflite/datasets/imagenet/train-00405-of-01024"
        string_val: "/home/tony/tflite/datasets/imagenet/train-00406-of-01024"
        string_val: "/home/tony/tflite/datasets/imagenet/train-00407-of-01024"
        string_val: "/home/tony/tflite/datasets/imagenet/train-00408-of-01024"
        string_val: "/home/tony/tflite/datasets/imagenet/train-00409-of-01024"
        string_val: "/home/tony/tflite/datasets/imagenet/train-00410-of-01024"
        string_val: "/home/tony/tflite/datasets/imagenet/train-00411-of-01024"
        string_val: "/home/tony/tflite/datasets/imagenet/train-00412-of-01024"
        string_val: "/home/tony/tflite/datasets/imagenet/train-00413-of-01024"
        string_val: "/home/tony/tflite/datasets/imagenet/train-00414-of-01024"
        string_val: "/home/tony/tflite/datasets/imagenet/train-00415-of-01024"
        string_val: "/home/tony/tflite/datasets/imagenet/train-00416-of-01024"
        string_val: "/home/tony/tflite/datasets/imagenet/train-00417-of-01024"
        string_val: "/home/tony/tflite/datasets/imagenet/train-00418-of-01024"
        string_val: "/home/tony/tflite/datasets/imagenet/train-00419-of-01024"
        string_val: "/home/tony/tflite/datasets/imagenet/train-00420-of-01024"
        string_val: "/home/tony/tflite/datasets/imagenet/train-00421-of-01024"
        string_val: "/home/tony/tflite/datasets/imagenet/train-00422-of-01024"
        string_val: "/home/tony/tflite/datasets/imagenet/train-00423-of-01024"
        string_val: "/home/tony/tflite/datasets/imagenet/train-00424-of-01024"
        string_val: "/home/tony/tflite/datasets/imagenet/train-00425-of-01024"
        string_val: "/home/tony/tflite/datasets/imagenet/train-00426-of-01024"
        string_val: "/home/tony/tflite/datasets/imagenet/train-00427-of-01024"
        string_val: "/home/tony/tflite/datasets/imagenet/train-00428-of-01024"
        string_val: "/home/tony/tflite/datasets/imagenet/train-00429-of-01024"
        string_val: "/home/tony/tflite/datasets/imagenet/train-00430-of-01024"
        string_val: "/home/tony/tflite/datasets/imagenet/train-00431-of-01024"
        string_val: "/home/tony/tflite/datasets/imagenet/train-00432-of-01024"
        string_val: "/home/tony/tflite/datasets/imagenet/train-00433-of-01024"
        string_val: "/home/tony/tflite/datasets/imagenet/train-00434-of-01024"
        string_val: "/home/tony/tflite/datasets/imagenet/train-00435-of-01024"
        string_val: "/home/tony/tflite/datasets/imagenet/train-00436-of-01024"
        string_val: "/home/tony/tflite/datasets/imagenet/train-00437-of-01024"
        string_val: "/home/tony/tflite/datasets/imagenet/train-00438-of-01024"
        string_val: "/home/tony/tflite/datasets/imagenet/train-00439-of-01024"
        string_val: "/home/tony/tflite/datasets/imagenet/train-00440-of-01024"
        string_val: "/home/tony/tflite/datasets/imagenet/train-00441-of-01024"
        string_val: "/home/tony/tflite/datasets/imagenet/train-00442-of-01024"
        string_val: "/home/tony/tflite/datasets/imagenet/train-00443-of-01024"
        string_val: "/home/tony/tflite/datasets/imagenet/train-00444-of-01024"
        string_val: "/home/tony/tflite/datasets/imagenet/train-00445-of-01024"
        string_val: "/home/tony/tflite/datasets/imagenet/train-00446-of-01024"
        string_val: "/home/tony/tflite/datasets/imagenet/train-00447-of-01024"
        string_val: "/home/tony/tflite/datasets/imagenet/train-00448-of-01024"
        string_val: "/home/tony/tflite/datasets/imagenet/train-00449-of-01024"
        string_val: "/home/tony/tflite/datasets/imagenet/train-00450-of-01024"
        string_val: "/home/tony/tflite/datasets/imagenet/train-00451-of-01024"
        string_val: "/home/tony/tflite/datasets/imagenet/train-00452-of-01024"
        string_val: "/home/tony/tflite/datasets/imagenet/train-00453-of-01024"
        string_val: "/home/tony/tflite/datasets/imagenet/train-00454-of-01024"
        string_val: "/home/tony/tflite/datasets/imagenet/train-00455-of-01024"
        string_val: "/home/tony/tflite/datasets/imagenet/train-00456-of-01024"
        string_val: "/home/tony/tflite/datasets/imagenet/train-00457-of-01024"
        string_val: "/home/tony/tflite/datasets/imagenet/train-00458-of-01024"
        string_val: "/home/tony/tflite/datasets/imagenet/train-00459-of-01024"
        string_val: "/home/tony/tflite/datasets/imagenet/train-00460-of-01024"
        string_val: "/home/tony/tflite/datasets/imagenet/train-00461-of-01024"
        string_val: "/home/tony/tflite/datasets/imagenet/train-00462-of-01024"
        string_val: "/home/tony/tflite/datasets/imagenet/train-00463-of-01024"
        string_val: "/home/tony/tflite/datasets/imagenet/train-00464-of-01024"
        string_val: "/home/tony/tflite/datasets/imagenet/train-00465-of-01024"
        string_val: "/home/tony/tflite/datasets/imagenet/train-00466-of-01024"
        string_val: "/home/tony/tflite/datasets/imagenet/train-00467-of-01024"
        string_val: "/home/tony/tflite/datasets/imagenet/train-00468-of-01024"
        string_val: "/home/tony/tflite/datasets/imagenet/train-00469-of-01024"
        string_val: "/home/tony/tflite/datasets/imagenet/train-00470-of-01024"
        string_val: "/home/tony/tflite/datasets/imagenet/train-00471-of-01024"
        string_val: "/home/tony/tflite/datasets/imagenet/train-00472-of-01024"
        string_val: "/home/tony/tflite/datasets/imagenet/train-00473-of-01024"
        string_val: "/home/tony/tflite/datasets/imagenet/train-00474-of-01024"
        string_val: "/home/tony/tflite/datasets/imagenet/train-00475-of-01024"
        string_val: "/home/tony/tflite/datasets/imagenet/train-00476-of-01024"
        string_val: "/home/tony/tflite/datasets/imagenet/train-00477-of-01024"
        string_val: "/home/tony/tflite/datasets/imagenet/train-00478-of-01024"
        string_val: "/home/tony/tflite/datasets/imagenet/train-00479-of-01024"
        string_val: "/home/tony/tflite/datasets/imagenet/train-00480-of-01024"
        string_val: "/home/tony/tflite/datasets/imagenet/train-00481-of-01024"
        string_val: "/home/tony/tflite/datasets/imagenet/train-00482-of-01024"
        string_val: "/home/tony/tflite/datasets/imagenet/train-00483-of-01024"
        string_val: "/home/tony/tflite/datasets/imagenet/train-00484-of-01024"
        string_val: "/home/tony/tflite/datasets/imagenet/train-00485-of-01024"
        string_val: "/home/tony/tflite/datasets/imagenet/train-00486-of-01024"
        string_val: "/home/tony/tflite/datasets/imagenet/train-00487-of-01024"
        string_val: "/home/tony/tflite/datasets/imagenet/train-00488-of-01024"
        string_val: "/home/tony/tflite/datasets/imagenet/train-00489-of-01024"
        string_val: "/home/tony/tflite/datasets/imagenet/train-00490-of-01024"
        string_val: "/home/tony/tflite/datasets/imagenet/train-00491-of-01024"
        string_val: "/home/tony/tflite/datasets/imagenet/train-00492-of-01024"
        string_val: "/home/tony/tflite/datasets/imagenet/train-00493-of-01024"
        string_val: "/home/tony/tflite/datasets/imagenet/train-00494-of-01024"
        string_val: "/home/tony/tflite/datasets/imagenet/train-00495-of-01024"
        string_val: "/home/tony/tflite/datasets/imagenet/train-00496-of-01024"
        string_val: "/home/tony/tflite/datasets/imagenet/train-00497-of-01024"
        string_val: "/home/tony/tflite/datasets/imagenet/train-00498-of-01024"
        string_val: "/home/tony/tflite/datasets/imagenet/train-00499-of-01024"
        string_val: "/home/tony/tflite/datasets/imagenet/train-00500-of-01024"
        string_val: "/home/tony/tflite/datasets/imagenet/train-00501-of-01024"
        string_val: "/home/tony/tflite/datasets/imagenet/train-00502-of-01024"
        string_val: "/home/tony/tflite/datasets/imagenet/train-00503-of-01024"
        string_val: "/home/tony/tflite/datasets/imagenet/train-00504-of-01024"
        string_val: "/home/tony/tflite/datasets/imagenet/train-00505-of-01024"
        string_val: "/home/tony/tflite/datasets/imagenet/train-00506-of-01024"
        string_val: "/home/tony/tflite/datasets/imagenet/train-00507-of-01024"
        string_val: "/home/tony/tflite/datasets/imagenet/train-00508-of-01024"
        string_val: "/home/tony/tflite/datasets/imagenet/train-00509-of-01024"
        string_val: "/home/tony/tflite/datasets/imagenet/train-00510-of-01024"
        string_val: "/home/tony/tflite/datasets/imagenet/train-00511-of-01024"
        string_val: "/home/tony/tflite/datasets/imagenet/train-00512-of-01024"
        string_val: "/home/tony/tflite/datasets/imagenet/train-00513-of-01024"
        string_val: "/home/tony/tflite/datasets/imagenet/train-00514-of-01024"
        string_val: "/home/tony/tflite/datasets/imagenet/train-00515-of-01024"
        string_val: "/home/tony/tflite/datasets/imagenet/train-00516-of-01024"
        string_val: "/home/tony/tflite/datasets/imagenet/train-00517-of-01024"
        string_val: "/home/tony/tflite/datasets/imagenet/train-00518-of-01024"
        string_val: "/home/tony/tflite/datasets/imagenet/train-00519-of-01024"
        string_val: "/home/tony/tflite/datasets/imagenet/train-00520-of-01024"
        string_val: "/home/tony/tflite/datasets/imagenet/train-00521-of-01024"
        string_val: "/home/tony/tflite/datasets/imagenet/train-00522-of-01024"
        string_val: "/home/tony/tflite/datasets/imagenet/train-00523-of-01024"
        string_val: "/home/tony/tflite/datasets/imagenet/train-00524-of-01024"
        string_val: "/home/tony/tflite/datasets/imagenet/train-00525-of-01024"
        string_val: "/home/tony/tflite/datasets/imagenet/train-00526-of-01024"
        string_val: "/home/tony/tflite/datasets/imagenet/train-00527-of-01024"
        string_val: "/home/tony/tflite/datasets/imagenet/train-00528-of-01024"
        string_val: "/home/tony/tflite/datasets/imagenet/train-00529-of-01024"
        string_val: "/home/tony/tflite/datasets/imagenet/train-00530-of-01024"
        string_val: "/home/tony/tflite/datasets/imagenet/train-00531-of-01024"
        string_val: "/home/tony/tflite/datasets/imagenet/train-00532-of-01024"
        string_val: "/home/tony/tflite/datasets/imagenet/train-00533-of-01024"
        string_val: "/home/tony/tflite/datasets/imagenet/train-00534-of-01024"
        string_val: "/home/tony/tflite/datasets/imagenet/train-00535-of-01024"
        string_val: "/home/tony/tflite/datasets/imagenet/train-00536-of-01024"
        string_val: "/home/tony/tflite/datasets/imagenet/train-00537-of-01024"
        string_val: "/home/tony/tflite/datasets/imagenet/train-00538-of-01024"
        string_val: "/home/tony/tflite/datasets/imagenet/train-00539-of-01024"
        string_val: "/home/tony/tflite/datasets/imagenet/train-00540-of-01024"
        string_val: "/home/tony/tflite/datasets/imagenet/train-00541-of-01024"
        string_val: "/home/tony/tflite/datasets/imagenet/train-00542-of-01024"
        string_val: "/home/tony/tflite/datasets/imagenet/train-00543-of-01024"
        string_val: "/home/tony/tflite/datasets/imagenet/train-00544-of-01024"
        string_val: "/home/tony/tflite/datasets/imagenet/train-00545-of-01024"
        string_val: "/home/tony/tflite/datasets/imagenet/train-00546-of-01024"
        string_val: "/home/tony/tflite/datasets/imagenet/train-00547-of-01024"
        string_val: "/home/tony/tflite/datasets/imagenet/train-00548-of-01024"
        string_val: "/home/tony/tflite/datasets/imagenet/train-00549-of-01024"
        string_val: "/home/tony/tflite/datasets/imagenet/train-00550-of-01024"
        string_val: "/home/tony/tflite/datasets/imagenet/train-00551-of-01024"
        string_val: "/home/tony/tflite/datasets/imagenet/train-00552-of-01024"
        string_val: "/home/tony/tflite/datasets/imagenet/train-00553-of-01024"
        string_val: "/home/tony/tflite/datasets/imagenet/train-00554-of-01024"
        string_val: "/home/tony/tflite/datasets/imagenet/train-00555-of-01024"
        string_val: "/home/tony/tflite/datasets/imagenet/train-00556-of-01024"
        string_val: "/home/tony/tflite/datasets/imagenet/train-00557-of-01024"
        string_val: "/home/tony/tflite/datasets/imagenet/train-00558-of-01024"
        string_val: "/home/tony/tflite/datasets/imagenet/train-00559-of-01024"
        string_val: "/home/tony/tflite/datasets/imagenet/train-00560-of-01024"
        string_val: "/home/tony/tflite/datasets/imagenet/train-00561-of-01024"
        string_val: "/home/tony/tflite/datasets/imagenet/train-00562-of-01024"
        string_val: "/home/tony/tflite/datasets/imagenet/train-00563-of-01024"
        string_val: "/home/tony/tflite/datasets/imagenet/train-00564-of-01024"
        string_val: "/home/tony/tflite/datasets/imagenet/train-00565-of-01024"
        string_val: "/home/tony/tflite/datasets/imagenet/train-00566-of-01024"
        string_val: "/home/tony/tflite/datasets/imagenet/train-00567-of-01024"
        string_val: "/home/tony/tflite/datasets/imagenet/train-00568-of-01024"
        string_val: "/home/tony/tflite/datasets/imagenet/train-00569-of-01024"
        string_val: "/home/tony/tflite/datasets/imagenet/train-00570-of-01024"
        string_val: "/home/tony/tflite/datasets/imagenet/train-00571-of-01024"
        string_val: "/home/tony/tflite/datasets/imagenet/train-00572-of-01024"
        string_val: "/home/tony/tflite/datasets/imagenet/train-00573-of-01024"
        string_val: "/home/tony/tflite/datasets/imagenet/train-00574-of-01024"
        string_val: "/home/tony/tflite/datasets/imagenet/train-00575-of-01024"
        string_val: "/home/tony/tflite/datasets/imagenet/train-00576-of-01024"
        string_val: "/home/tony/tflite/datasets/imagenet/train-00577-of-01024"
        string_val: "/home/tony/tflite/datasets/imagenet/train-00578-of-01024"
        string_val: "/home/tony/tflite/datasets/imagenet/train-00579-of-01024"
        string_val: "/home/tony/tflite/datasets/imagenet/train-00580-of-01024"
        string_val: "/home/tony/tflite/datasets/imagenet/train-00581-of-01024"
        string_val: "/home/tony/tflite/datasets/imagenet/train-00582-of-01024"
        string_val: "/home/tony/tflite/datasets/imagenet/train-00583-of-01024"
        string_val: "/home/tony/tflite/datasets/imagenet/train-00584-of-01024"
        string_val: "/home/tony/tflite/datasets/imagenet/train-00585-of-01024"
        string_val: "/home/tony/tflite/datasets/imagenet/train-00586-of-01024"
        string_val: "/home/tony/tflite/datasets/imagenet/train-00587-of-01024"
        string_val: "/home/tony/tflite/datasets/imagenet/train-00588-of-01024"
        string_val: "/home/tony/tflite/datasets/imagenet/train-00589-of-01024"
        string_val: "/home/tony/tflite/datasets/imagenet/train-00590-of-01024"
        string_val: "/home/tony/tflite/datasets/imagenet/train-00591-of-01024"
        string_val: "/home/tony/tflite/datasets/imagenet/train-00592-of-01024"
        string_val: "/home/tony/tflite/datasets/imagenet/train-00593-of-01024"
        string_val: "/home/tony/tflite/datasets/imagenet/train-00594-of-01024"
        string_val: "/home/tony/tflite/datasets/imagenet/train-00595-of-01024"
        string_val: "/home/tony/tflite/datasets/imagenet/train-00596-of-01024"
        string_val: "/home/tony/tflite/datasets/imagenet/train-00597-of-01024"
        string_val: "/home/tony/tflite/datasets/imagenet/train-00598-of-01024"
        string_val: "/home/tony/tflite/datasets/imagenet/train-00599-of-01024"
        string_val: "/home/tony/tflite/datasets/imagenet/train-00600-of-01024"
        string_val: "/home/tony/tflite/datasets/imagenet/train-00601-of-01024"
        string_val: "/home/tony/tflite/datasets/imagenet/train-00602-of-01024"
        string_val: "/home/tony/tflite/datasets/imagenet/train-00603-of-01024"
        string_val: "/home/tony/tflite/datasets/imagenet/train-00604-of-01024"
        string_val: "/home/tony/tflite/datasets/imagenet/train-00605-of-01024"
        string_val: "/home/tony/tflite/datasets/imagenet/train-00606-of-01024"
        string_val: "/home/tony/tflite/datasets/imagenet/train-00607-of-01024"
        string_val: "/home/tony/tflite/datasets/imagenet/train-00608-of-01024"
        string_val: "/home/tony/tflite/datasets/imagenet/train-00609-of-01024"
        string_val: "/home/tony/tflite/datasets/imagenet/train-00610-of-01024"
        string_val: "/home/tony/tflite/datasets/imagenet/train-00611-of-01024"
        string_val: "/home/tony/tflite/datasets/imagenet/train-00612-of-01024"
        string_val: "/home/tony/tflite/datasets/imagenet/train-00613-of-01024"
        string_val: "/home/tony/tflite/datasets/imagenet/train-00614-of-01024"
        string_val: "/home/tony/tflite/datasets/imagenet/train-00615-of-01024"
        string_val: "/home/tony/tflite/datasets/imagenet/train-00616-of-01024"
        string_val: "/home/tony/tflite/datasets/imagenet/train-00617-of-01024"
        string_val: "/home/tony/tflite/datasets/imagenet/train-00618-of-01024"
        string_val: "/home/tony/tflite/datasets/imagenet/train-00619-of-01024"
        string_val: "/home/tony/tflite/datasets/imagenet/train-00620-of-01024"
        string_val: "/home/tony/tflite/datasets/imagenet/train-00621-of-01024"
        string_val: "/home/tony/tflite/datasets/imagenet/train-00622-of-01024"
        string_val: "/home/tony/tflite/datasets/imagenet/train-00623-of-01024"
        string_val: "/home/tony/tflite/datasets/imagenet/train-00624-of-01024"
        string_val: "/home/tony/tflite/datasets/imagenet/train-00625-of-01024"
        string_val: "/home/tony/tflite/datasets/imagenet/train-00626-of-01024"
        string_val: "/home/tony/tflite/datasets/imagenet/train-00627-of-01024"
        string_val: "/home/tony/tflite/datasets/imagenet/train-00628-of-01024"
        string_val: "/home/tony/tflite/datasets/imagenet/train-00629-of-01024"
        string_val: "/home/tony/tflite/datasets/imagenet/train-00630-of-01024"
        string_val: "/home/tony/tflite/datasets/imagenet/train-00631-of-01024"
        string_val: "/home/tony/tflite/datasets/imagenet/train-00632-of-01024"
        string_val: "/home/tony/tflite/datasets/imagenet/train-00633-of-01024"
        string_val: "/home/tony/tflite/datasets/imagenet/train-00634-of-01024"
        string_val: "/home/tony/tflite/datasets/imagenet/train-00635-of-01024"
        string_val: "/home/tony/tflite/datasets/imagenet/train-00636-of-01024"
        string_val: "/home/tony/tflite/datasets/imagenet/train-00637-of-01024"
        string_val: "/home/tony/tflite/datasets/imagenet/train-00638-of-01024"
        string_val: "/home/tony/tflite/datasets/imagenet/train-00639-of-01024"
        string_val: "/home/tony/tflite/datasets/imagenet/train-00640-of-01024"
        string_val: "/home/tony/tflite/datasets/imagenet/train-00641-of-01024"
        string_val: "/home/tony/tflite/datasets/imagenet/train-00642-of-01024"
        string_val: "/home/tony/tflite/datasets/imagenet/train-00643-of-01024"
        string_val: "/home/tony/tflite/datasets/imagenet/train-00644-of-01024"
        string_val: "/home/tony/tflite/datasets/imagenet/train-00645-of-01024"
        string_val: "/home/tony/tflite/datasets/imagenet/train-00646-of-01024"
        string_val: "/home/tony/tflite/datasets/imagenet/train-00647-of-01024"
        string_val: "/home/tony/tflite/datasets/imagenet/train-00648-of-01024"
        string_val: "/home/tony/tflite/datasets/imagenet/train-00649-of-01024"
        string_val: "/home/tony/tflite/datasets/imagenet/train-00650-of-01024"
        string_val: "/home/tony/tflite/datasets/imagenet/train-00651-of-01024"
        string_val: "/home/tony/tflite/datasets/imagenet/train-00652-of-01024"
        string_val: "/home/tony/tflite/datasets/imagenet/train-00653-of-01024"
        string_val: "/home/tony/tflite/datasets/imagenet/train-00654-of-01024"
        string_val: "/home/tony/tflite/datasets/imagenet/train-00655-of-01024"
        string_val: "/home/tony/tflite/datasets/imagenet/train-00656-of-01024"
        string_val: "/home/tony/tflite/datasets/imagenet/train-00657-of-01024"
        string_val: "/home/tony/tflite/datasets/imagenet/train-00658-of-01024"
        string_val: "/home/tony/tflite/datasets/imagenet/train-00659-of-01024"
        string_val: "/home/tony/tflite/datasets/imagenet/train-00660-of-01024"
        string_val: "/home/tony/tflite/datasets/imagenet/train-00661-of-01024"
        string_val: "/home/tony/tflite/datasets/imagenet/train-00662-of-01024"
        string_val: "/home/tony/tflite/datasets/imagenet/train-00663-of-01024"
        string_val: "/home/tony/tflite/datasets/imagenet/train-00664-of-01024"
        string_val: "/home/tony/tflite/datasets/imagenet/train-00665-of-01024"
        string_val: "/home/tony/tflite/datasets/imagenet/train-00666-of-01024"
        string_val: "/home/tony/tflite/datasets/imagenet/train-00667-of-01024"
        string_val: "/home/tony/tflite/datasets/imagenet/train-00668-of-01024"
        string_val: "/home/tony/tflite/datasets/imagenet/train-00669-of-01024"
        string_val: "/home/tony/tflite/datasets/imagenet/train-00670-of-01024"
        string_val: "/home/tony/tflite/datasets/imagenet/train-00671-of-01024"
        string_val: "/home/tony/tflite/datasets/imagenet/train-00672-of-01024"
        string_val: "/home/tony/tflite/datasets/imagenet/train-00673-of-01024"
        string_val: "/home/tony/tflite/datasets/imagenet/train-00674-of-01024"
        string_val: "/home/tony/tflite/datasets/imagenet/train-00675-of-01024"
        string_val: "/home/tony/tflite/datasets/imagenet/train-00676-of-01024"
        string_val: "/home/tony/tflite/datasets/imagenet/train-00677-of-01024"
        string_val: "/home/tony/tflite/datasets/imagenet/train-00678-of-01024"
        string_val: "/home/tony/tflite/datasets/imagenet/train-00679-of-01024"
        string_val: "/home/tony/tflite/datasets/imagenet/train-00680-of-01024"
        string_val: "/home/tony/tflite/datasets/imagenet/train-00681-of-01024"
        string_val: "/home/tony/tflite/datasets/imagenet/train-00682-of-01024"
        string_val: "/home/tony/tflite/datasets/imagenet/train-00683-of-01024"
        string_val: "/home/tony/tflite/datasets/imagenet/train-00684-of-01024"
        string_val: "/home/tony/tflite/datasets/imagenet/train-00685-of-01024"
        string_val: "/home/tony/tflite/datasets/imagenet/train-00686-of-01024"
        string_val: "/home/tony/tflite/datasets/imagenet/train-00687-of-01024"
        string_val: "/home/tony/tflite/datasets/imagenet/train-00688-of-01024"
        string_val: "/home/tony/tflite/datasets/imagenet/train-00689-of-01024"
        string_val: "/home/tony/tflite/datasets/imagenet/train-00690-of-01024"
        string_val: "/home/tony/tflite/datasets/imagenet/train-00691-of-01024"
        string_val: "/home/tony/tflite/datasets/imagenet/train-00692-of-01024"
        string_val: "/home/tony/tflite/datasets/imagenet/train-00693-of-01024"
        string_val: "/home/tony/tflite/datasets/imagenet/train-00694-of-01024"
        string_val: "/home/tony/tflite/datasets/imagenet/train-00695-of-01024"
        string_val: "/home/tony/tflite/datasets/imagenet/train-00696-of-01024"
        string_val: "/home/tony/tflite/datasets/imagenet/train-00697-of-01024"
        string_val: "/home/tony/tflite/datasets/imagenet/train-00698-of-01024"
        string_val: "/home/tony/tflite/datasets/imagenet/train-00699-of-01024"
        string_val: "/home/tony/tflite/datasets/imagenet/train-00700-of-01024"
        string_val: "/home/tony/tflite/datasets/imagenet/train-00701-of-01024"
        string_val: "/home/tony/tflite/datasets/imagenet/train-00702-of-01024"
        string_val: "/home/tony/tflite/datasets/imagenet/train-00703-of-01024"
        string_val: "/home/tony/tflite/datasets/imagenet/train-00704-of-01024"
        string_val: "/home/tony/tflite/datasets/imagenet/train-00705-of-01024"
        string_val: "/home/tony/tflite/datasets/imagenet/train-00706-of-01024"
        string_val: "/home/tony/tflite/datasets/imagenet/train-00707-of-01024"
        string_val: "/home/tony/tflite/datasets/imagenet/train-00708-of-01024"
        string_val: "/home/tony/tflite/datasets/imagenet/train-00709-of-01024"
        string_val: "/home/tony/tflite/datasets/imagenet/train-00710-of-01024"
        string_val: "/home/tony/tflite/datasets/imagenet/train-00711-of-01024"
        string_val: "/home/tony/tflite/datasets/imagenet/train-00712-of-01024"
        string_val: "/home/tony/tflite/datasets/imagenet/train-00713-of-01024"
        string_val: "/home/tony/tflite/datasets/imagenet/train-00714-of-01024"
        string_val: "/home/tony/tflite/datasets/imagenet/train-00715-of-01024"
        string_val: "/home/tony/tflite/datasets/imagenet/train-00716-of-01024"
        string_val: "/home/tony/tflite/datasets/imagenet/train-00717-of-01024"
        string_val: "/home/tony/tflite/datasets/imagenet/train-00718-of-01024"
        string_val: "/home/tony/tflite/datasets/imagenet/train-00719-of-01024"
        string_val: "/home/tony/tflite/datasets/imagenet/train-00720-of-01024"
        string_val: "/home/tony/tflite/datasets/imagenet/train-00721-of-01024"
        string_val: "/home/tony/tflite/datasets/imagenet/train-00722-of-01024"
        string_val: "/home/tony/tflite/datasets/imagenet/train-00723-of-01024"
        string_val: "/home/tony/tflite/datasets/imagenet/train-00724-of-01024"
        string_val: "/home/tony/tflite/datasets/imagenet/train-00725-of-01024"
        string_val: "/home/tony/tflite/datasets/imagenet/train-00726-of-01024"
        string_val: "/home/tony/tflite/datasets/imagenet/train-00727-of-01024"
        string_val: "/home/tony/tflite/datasets/imagenet/train-00728-of-01024"
        string_val: "/home/tony/tflite/datasets/imagenet/train-00729-of-01024"
        string_val: "/home/tony/tflite/datasets/imagenet/train-00730-of-01024"
        string_val: "/home/tony/tflite/datasets/imagenet/train-00731-of-01024"
        string_val: "/home/tony/tflite/datasets/imagenet/train-00732-of-01024"
        string_val: "/home/tony/tflite/datasets/imagenet/train-00733-of-01024"
        string_val: "/home/tony/tflite/datasets/imagenet/train-00734-of-01024"
        string_val: "/home/tony/tflite/datasets/imagenet/train-00735-of-01024"
        string_val: "/home/tony/tflite/datasets/imagenet/train-00736-of-01024"
        string_val: "/home/tony/tflite/datasets/imagenet/train-00737-of-01024"
        string_val: "/home/tony/tflite/datasets/imagenet/train-00738-of-01024"
        string_val: "/home/tony/tflite/datasets/imagenet/train-00739-of-01024"
        string_val: "/home/tony/tflite/datasets/imagenet/train-00740-of-01024"
        string_val: "/home/tony/tflite/datasets/imagenet/train-00741-of-01024"
        string_val: "/home/tony/tflite/datasets/imagenet/train-00742-of-01024"
        string_val: "/home/tony/tflite/datasets/imagenet/train-00743-of-01024"
        string_val: "/home/tony/tflite/datasets/imagenet/train-00744-of-01024"
        string_val: "/home/tony/tflite/datasets/imagenet/train-00745-of-01024"
        string_val: "/home/tony/tflite/datasets/imagenet/train-00746-of-01024"
        string_val: "/home/tony/tflite/datasets/imagenet/train-00747-of-01024"
        string_val: "/home/tony/tflite/datasets/imagenet/train-00748-of-01024"
        string_val: "/home/tony/tflite/datasets/imagenet/train-00749-of-01024"
        string_val: "/home/tony/tflite/datasets/imagenet/train-00750-of-01024"
        string_val: "/home/tony/tflite/datasets/imagenet/train-00751-of-01024"
        string_val: "/home/tony/tflite/datasets/imagenet/train-00752-of-01024"
        string_val: "/home/tony/tflite/datasets/imagenet/train-00753-of-01024"
        string_val: "/home/tony/tflite/datasets/imagenet/train-00754-of-01024"
        string_val: "/home/tony/tflite/datasets/imagenet/train-00755-of-01024"
        string_val: "/home/tony/tflite/datasets/imagenet/train-00756-of-01024"
        string_val: "/home/tony/tflite/datasets/imagenet/train-00757-of-01024"
        string_val: "/home/tony/tflite/datasets/imagenet/train-00758-of-01024"
        string_val: "/home/tony/tflite/datasets/imagenet/train-00759-of-01024"
        string_val: "/home/tony/tflite/datasets/imagenet/train-00760-of-01024"
        string_val: "/home/tony/tflite/datasets/imagenet/train-00761-of-01024"
        string_val: "/home/tony/tflite/datasets/imagenet/train-00762-of-01024"
        string_val: "/home/tony/tflite/datasets/imagenet/train-00763-of-01024"
        string_val: "/home/tony/tflite/datasets/imagenet/train-00764-of-01024"
        string_val: "/home/tony/tflite/datasets/imagenet/train-00765-of-01024"
        string_val: "/home/tony/tflite/datasets/imagenet/train-00766-of-01024"
        string_val: "/home/tony/tflite/datasets/imagenet/train-00767-of-01024"
        string_val: "/home/tony/tflite/datasets/imagenet/train-00768-of-01024"
        string_val: "/home/tony/tflite/datasets/imagenet/train-00769-of-01024"
        string_val: "/home/tony/tflite/datasets/imagenet/train-00770-of-01024"
        string_val: "/home/tony/tflite/datasets/imagenet/train-00771-of-01024"
        string_val: "/home/tony/tflite/datasets/imagenet/train-00772-of-01024"
        string_val: "/home/tony/tflite/datasets/imagenet/train-00773-of-01024"
        string_val: "/home/tony/tflite/datasets/imagenet/train-00774-of-01024"
        string_val: "/home/tony/tflite/datasets/imagenet/train-00775-of-01024"
        string_val: "/home/tony/tflite/datasets/imagenet/train-00776-of-01024"
        string_val: "/home/tony/tflite/datasets/imagenet/train-00777-of-01024"
        string_val: "/home/tony/tflite/datasets/imagenet/train-00778-of-01024"
        string_val: "/home/tony/tflite/datasets/imagenet/train-00779-of-01024"
        string_val: "/home/tony/tflite/datasets/imagenet/train-00780-of-01024"
        string_val: "/home/tony/tflite/datasets/imagenet/train-00781-of-01024"
        string_val: "/home/tony/tflite/datasets/imagenet/train-00782-of-01024"
        string_val: "/home/tony/tflite/datasets/imagenet/train-00783-of-01024"
        string_val: "/home/tony/tflite/datasets/imagenet/train-00784-of-01024"
        string_val: "/home/tony/tflite/datasets/imagenet/train-00785-of-01024"
        string_val: "/home/tony/tflite/datasets/imagenet/train-00786-of-01024"
        string_val: "/home/tony/tflite/datasets/imagenet/train-00787-of-01024"
        string_val: "/home/tony/tflite/datasets/imagenet/train-00788-of-01024"
        string_val: "/home/tony/tflite/datasets/imagenet/train-00789-of-01024"
        string_val: "/home/tony/tflite/datasets/imagenet/train-00790-of-01024"
        string_val: "/home/tony/tflite/datasets/imagenet/train-00791-of-01024"
        string_val: "/home/tony/tflite/datasets/imagenet/train-00792-of-01024"
        string_val: "/home/tony/tflite/datasets/imagenet/train-00793-of-01024"
        string_val: "/home/tony/tflite/datasets/imagenet/train-00794-of-01024"
        string_val: "/home/tony/tflite/datasets/imagenet/train-00795-of-01024"
        string_val: "/home/tony/tflite/datasets/imagenet/train-00796-of-01024"
        string_val: "/home/tony/tflite/datasets/imagenet/train-00797-of-01024"
        string_val: "/home/tony/tflite/datasets/imagenet/train-00798-of-01024"
        string_val: "/home/tony/tflite/datasets/imagenet/train-00799-of-01024"
        string_val: "/home/tony/tflite/datasets/imagenet/train-00800-of-01024"
        string_val: "/home/tony/tflite/datasets/imagenet/train-00801-of-01024"
        string_val: "/home/tony/tflite/datasets/imagenet/train-00802-of-01024"
        string_val: "/home/tony/tflite/datasets/imagenet/train-00803-of-01024"
        string_val: "/home/tony/tflite/datasets/imagenet/train-00804-of-01024"
        string_val: "/home/tony/tflite/datasets/imagenet/train-00805-of-01024"
        string_val: "/home/tony/tflite/datasets/imagenet/train-00806-of-01024"
        string_val: "/home/tony/tflite/datasets/imagenet/train-00807-of-01024"
        string_val: "/home/tony/tflite/datasets/imagenet/train-00808-of-01024"
        string_val: "/home/tony/tflite/datasets/imagenet/train-00809-of-01024"
        string_val: "/home/tony/tflite/datasets/imagenet/train-00810-of-01024"
        string_val: "/home/tony/tflite/datasets/imagenet/train-00811-of-01024"
        string_val: "/home/tony/tflite/datasets/imagenet/train-00812-of-01024"
        string_val: "/home/tony/tflite/datasets/imagenet/train-00813-of-01024"
        string_val: "/home/tony/tflite/datasets/imagenet/train-00814-of-01024"
        string_val: "/home/tony/tflite/datasets/imagenet/train-00815-of-01024"
        string_val: "/home/tony/tflite/datasets/imagenet/train-00816-of-01024"
        string_val: "/home/tony/tflite/datasets/imagenet/train-00817-of-01024"
        string_val: "/home/tony/tflite/datasets/imagenet/train-00818-of-01024"
        string_val: "/home/tony/tflite/datasets/imagenet/train-00819-of-01024"
        string_val: "/home/tony/tflite/datasets/imagenet/train-00820-of-01024"
        string_val: "/home/tony/tflite/datasets/imagenet/train-00821-of-01024"
        string_val: "/home/tony/tflite/datasets/imagenet/train-00822-of-01024"
        string_val: "/home/tony/tflite/datasets/imagenet/train-00823-of-01024"
        string_val: "/home/tony/tflite/datasets/imagenet/train-00824-of-01024"
        string_val: "/home/tony/tflite/datasets/imagenet/train-00825-of-01024"
        string_val: "/home/tony/tflite/datasets/imagenet/train-00826-of-01024"
        string_val: "/home/tony/tflite/datasets/imagenet/train-00827-of-01024"
        string_val: "/home/tony/tflite/datasets/imagenet/train-00828-of-01024"
        string_val: "/home/tony/tflite/datasets/imagenet/train-00829-of-01024"
        string_val: "/home/tony/tflite/datasets/imagenet/train-00830-of-01024"
        string_val: "/home/tony/tflite/datasets/imagenet/train-00831-of-01024"
        string_val: "/home/tony/tflite/datasets/imagenet/train-00832-of-01024"
        string_val: "/home/tony/tflite/datasets/imagenet/train-00833-of-01024"
        string_val: "/home/tony/tflite/datasets/imagenet/train-00834-of-01024"
        string_val: "/home/tony/tflite/datasets/imagenet/train-00835-of-01024"
        string_val: "/home/tony/tflite/datasets/imagenet/train-00836-of-01024"
        string_val: "/home/tony/tflite/datasets/imagenet/train-00837-of-01024"
        string_val: "/home/tony/tflite/datasets/imagenet/train-00838-of-01024"
        string_val: "/home/tony/tflite/datasets/imagenet/train-00839-of-01024"
        string_val: "/home/tony/tflite/datasets/imagenet/train-00840-of-01024"
        string_val: "/home/tony/tflite/datasets/imagenet/train-00841-of-01024"
        string_val: "/home/tony/tflite/datasets/imagenet/train-00842-of-01024"
        string_val: "/home/tony/tflite/datasets/imagenet/train-00843-of-01024"
        string_val: "/home/tony/tflite/datasets/imagenet/train-00844-of-01024"
        string_val: "/home/tony/tflite/datasets/imagenet/train-00845-of-01024"
        string_val: "/home/tony/tflite/datasets/imagenet/train-00846-of-01024"
        string_val: "/home/tony/tflite/datasets/imagenet/train-00847-of-01024"
        string_val: "/home/tony/tflite/datasets/imagenet/train-00848-of-01024"
        string_val: "/home/tony/tflite/datasets/imagenet/train-00849-of-01024"
        string_val: "/home/tony/tflite/datasets/imagenet/train-00850-of-01024"
        string_val: "/home/tony/tflite/datasets/imagenet/train-00851-of-01024"
        string_val: "/home/tony/tflite/datasets/imagenet/train-00852-of-01024"
        string_val: "/home/tony/tflite/datasets/imagenet/train-00853-of-01024"
        string_val: "/home/tony/tflite/datasets/imagenet/train-00854-of-01024"
        string_val: "/home/tony/tflite/datasets/imagenet/train-00855-of-01024"
        string_val: "/home/tony/tflite/datasets/imagenet/train-00856-of-01024"
        string_val: "/home/tony/tflite/datasets/imagenet/train-00857-of-01024"
        string_val: "/home/tony/tflite/datasets/imagenet/train-00858-of-01024"
        string_val: "/home/tony/tflite/datasets/imagenet/train-00859-of-01024"
        string_val: "/home/tony/tflite/datasets/imagenet/train-00860-of-01024"
        string_val: "/home/tony/tflite/datasets/imagenet/train-00861-of-01024"
        string_val: "/home/tony/tflite/datasets/imagenet/train-00862-of-01024"
        string_val: "/home/tony/tflite/datasets/imagenet/train-00863-of-01024"
        string_val: "/home/tony/tflite/datasets/imagenet/train-00864-of-01024"
        string_val: "/home/tony/tflite/datasets/imagenet/train-00865-of-01024"
        string_val: "/home/tony/tflite/datasets/imagenet/train-00866-of-01024"
        string_val: "/home/tony/tflite/datasets/imagenet/train-00867-of-01024"
        string_val: "/home/tony/tflite/datasets/imagenet/train-00868-of-01024"
        string_val: "/home/tony/tflite/datasets/imagenet/train-00869-of-01024"
        string_val: "/home/tony/tflite/datasets/imagenet/train-00870-of-01024"
        string_val: "/home/tony/tflite/datasets/imagenet/train-00871-of-01024"
        string_val: "/home/tony/tflite/datasets/imagenet/train-00872-of-01024"
        string_val: "/home/tony/tflite/datasets/imagenet/train-00873-of-01024"
        string_val: "/home/tony/tflite/datasets/imagenet/train-00874-of-01024"
        string_val: "/home/tony/tflite/datasets/imagenet/train-00875-of-01024"
        string_val: "/home/tony/tflite/datasets/imagenet/train-00876-of-01024"
        string_val: "/home/tony/tflite/datasets/imagenet/train-00877-of-01024"
        string_val: "/home/tony/tflite/datasets/imagenet/train-00878-of-01024"
        string_val: "/home/tony/tflite/datasets/imagenet/train-00879-of-01024"
        string_val: "/home/tony/tflite/datasets/imagenet/train-00880-of-01024"
        string_val: "/home/tony/tflite/datasets/imagenet/train-00881-of-01024"
        string_val: "/home/tony/tflite/datasets/imagenet/train-00882-of-01024"
        string_val: "/home/tony/tflite/datasets/imagenet/train-00883-of-01024"
        string_val: "/home/tony/tflite/datasets/imagenet/train-00884-of-01024"
        string_val: "/home/tony/tflite/datasets/imagenet/train-00885-of-01024"
        string_val: "/home/tony/tflite/datasets/imagenet/train-00886-of-01024"
        string_val: "/home/tony/tflite/datasets/imagenet/train-00887-of-01024"
        string_val: "/home/tony/tflite/datasets/imagenet/train-00888-of-01024"
        string_val: "/home/tony/tflite/datasets/imagenet/train-00889-of-01024"
        string_val: "/home/tony/tflite/datasets/imagenet/train-00890-of-01024"
        string_val: "/home/tony/tflite/datasets/imagenet/train-00891-of-01024"
        string_val: "/home/tony/tflite/datasets/imagenet/train-00892-of-01024"
        string_val: "/home/tony/tflite/datasets/imagenet/train-00893-of-01024"
        string_val: "/home/tony/tflite/datasets/imagenet/train-00894-of-01024"
        string_val: "/home/tony/tflite/datasets/imagenet/train-00895-of-01024"
        string_val: "/home/tony/tflite/datasets/imagenet/train-00896-of-01024"
        string_val: "/home/tony/tflite/datasets/imagenet/train-00897-of-01024"
        string_val: "/home/tony/tflite/datasets/imagenet/train-00898-of-01024"
        string_val: "/home/tony/tflite/datasets/imagenet/train-00899-of-01024"
        string_val: "/home/tony/tflite/datasets/imagenet/train-00900-of-01024"
        string_val: "/home/tony/tflite/datasets/imagenet/train-00901-of-01024"
        string_val: "/home/tony/tflite/datasets/imagenet/train-00902-of-01024"
        string_val: "/home/tony/tflite/datasets/imagenet/train-00903-of-01024"
        string_val: "/home/tony/tflite/datasets/imagenet/train-00904-of-01024"
        string_val: "/home/tony/tflite/datasets/imagenet/train-00905-of-01024"
        string_val: "/home/tony/tflite/datasets/imagenet/train-00906-of-01024"
        string_val: "/home/tony/tflite/datasets/imagenet/train-00907-of-01024"
        string_val: "/home/tony/tflite/datasets/imagenet/train-00908-of-01024"
        string_val: "/home/tony/tflite/datasets/imagenet/train-00909-of-01024"
        string_val: "/home/tony/tflite/datasets/imagenet/train-00910-of-01024"
        string_val: "/home/tony/tflite/datasets/imagenet/train-00911-of-01024"
        string_val: "/home/tony/tflite/datasets/imagenet/train-00912-of-01024"
        string_val: "/home/tony/tflite/datasets/imagenet/train-00913-of-01024"
        string_val: "/home/tony/tflite/datasets/imagenet/train-00914-of-01024"
        string_val: "/home/tony/tflite/datasets/imagenet/train-00915-of-01024"
        string_val: "/home/tony/tflite/datasets/imagenet/train-00916-of-01024"
        string_val: "/home/tony/tflite/datasets/imagenet/train-00917-of-01024"
        string_val: "/home/tony/tflite/datasets/imagenet/train-00918-of-01024"
        string_val: "/home/tony/tflite/datasets/imagenet/train-00919-of-01024"
        string_val: "/home/tony/tflite/datasets/imagenet/train-00920-of-01024"
        string_val: "/home/tony/tflite/datasets/imagenet/train-00921-of-01024"
        string_val: "/home/tony/tflite/datasets/imagenet/train-00922-of-01024"
        string_val: "/home/tony/tflite/datasets/imagenet/train-00923-of-01024"
        string_val: "/home/tony/tflite/datasets/imagenet/train-00924-of-01024"
        string_val: "/home/tony/tflite/datasets/imagenet/train-00925-of-01024"
        string_val: "/home/tony/tflite/datasets/imagenet/train-00926-of-01024"
        string_val: "/home/tony/tflite/datasets/imagenet/train-00927-of-01024"
        string_val: "/home/tony/tflite/datasets/imagenet/train-00928-of-01024"
        string_val: "/home/tony/tflite/datasets/imagenet/train-00929-of-01024"
        string_val: "/home/tony/tflite/datasets/imagenet/train-00930-of-01024"
        string_val: "/home/tony/tflite/datasets/imagenet/train-00931-of-01024"
        string_val: "/home/tony/tflite/datasets/imagenet/train-00932-of-01024"
        string_val: "/home/tony/tflite/datasets/imagenet/train-00933-of-01024"
        string_val: "/home/tony/tflite/datasets/imagenet/train-00934-of-01024"
        string_val: "/home/tony/tflite/datasets/imagenet/train-00935-of-01024"
        string_val: "/home/tony/tflite/datasets/imagenet/train-00936-of-01024"
        string_val: "/home/tony/tflite/datasets/imagenet/train-00937-of-01024"
        string_val: "/home/tony/tflite/datasets/imagenet/train-00938-of-01024"
        string_val: "/home/tony/tflite/datasets/imagenet/train-00939-of-01024"
        string_val: "/home/tony/tflite/datasets/imagenet/train-00940-of-01024"
        string_val: "/home/tony/tflite/datasets/imagenet/train-00941-of-01024"
        string_val: "/home/tony/tflite/datasets/imagenet/train-00942-of-01024"
        string_val: "/home/tony/tflite/datasets/imagenet/train-00943-of-01024"
        string_val: "/home/tony/tflite/datasets/imagenet/train-00944-of-01024"
        string_val: "/home/tony/tflite/datasets/imagenet/train-00945-of-01024"
        string_val: "/home/tony/tflite/datasets/imagenet/train-00946-of-01024"
        string_val: "/home/tony/tflite/datasets/imagenet/train-00947-of-01024"
        string_val: "/home/tony/tflite/datasets/imagenet/train-00948-of-01024"
        string_val: "/home/tony/tflite/datasets/imagenet/train-00949-of-01024"
        string_val: "/home/tony/tflite/datasets/imagenet/train-00950-of-01024"
        string_val: "/home/tony/tflite/datasets/imagenet/train-00951-of-01024"
        string_val: "/home/tony/tflite/datasets/imagenet/train-00952-of-01024"
        string_val: "/home/tony/tflite/datasets/imagenet/train-00953-of-01024"
        string_val: "/home/tony/tflite/datasets/imagenet/train-00954-of-01024"
        string_val: "/home/tony/tflite/datasets/imagenet/train-00955-of-01024"
        string_val: "/home/tony/tflite/datasets/imagenet/train-00956-of-01024"
        string_val: "/home/tony/tflite/datasets/imagenet/train-00957-of-01024"
        string_val: "/home/tony/tflite/datasets/imagenet/train-00958-of-01024"
        string_val: "/home/tony/tflite/datasets/imagenet/train-00959-of-01024"
        string_val: "/home/tony/tflite/datasets/imagenet/train-00960-of-01024"
        string_val: "/home/tony/tflite/datasets/imagenet/train-00961-of-01024"
        string_val: "/home/tony/tflite/datasets/imagenet/train-00962-of-01024"
        string_val: "/home/tony/tflite/datasets/imagenet/train-00963-of-01024"
        string_val: "/home/tony/tflite/datasets/imagenet/train-00964-of-01024"
        string_val: "/home/tony/tflite/datasets/imagenet/train-00965-of-01024"
        string_val: "/home/tony/tflite/datasets/imagenet/train-00966-of-01024"
        string_val: "/home/tony/tflite/datasets/imagenet/train-00967-of-01024"
        string_val: "/home/tony/tflite/datasets/imagenet/train-00968-of-01024"
        string_val: "/home/tony/tflite/datasets/imagenet/train-00969-of-01024"
        string_val: "/home/tony/tflite/datasets/imagenet/train-00970-of-01024"
        string_val: "/home/tony/tflite/datasets/imagenet/train-00971-of-01024"
        string_val: "/home/tony/tflite/datasets/imagenet/train-00972-of-01024"
        string_val: "/home/tony/tflite/datasets/imagenet/train-00973-of-01024"
        string_val: "/home/tony/tflite/datasets/imagenet/train-00974-of-01024"
        string_val: "/home/tony/tflite/datasets/imagenet/train-00975-of-01024"
        string_val: "/home/tony/tflite/datasets/imagenet/train-00976-of-01024"
        string_val: "/home/tony/tflite/datasets/imagenet/train-00977-of-01024"
        string_val: "/home/tony/tflite/datasets/imagenet/train-00978-of-01024"
        string_val: "/home/tony/tflite/datasets/imagenet/train-00979-of-01024"
        string_val: "/home/tony/tflite/datasets/imagenet/train-00980-of-01024"
        string_val: "/home/tony/tflite/datasets/imagenet/train-00981-of-01024"
        string_val: "/home/tony/tflite/datasets/imagenet/train-00982-of-01024"
        string_val: "/home/tony/tflite/datasets/imagenet/train-00983-of-01024"
        string_val: "/home/tony/tflite/datasets/imagenet/train-00984-of-01024"
        string_val: "/home/tony/tflite/datasets/imagenet/train-00985-of-01024"
        string_val: "/home/tony/tflite/datasets/imagenet/train-00986-of-01024"
        string_val: "/home/tony/tflite/datasets/imagenet/train-00987-of-01024"
        string_val: "/home/tony/tflite/datasets/imagenet/train-00988-of-01024"
        string_val: "/home/tony/tflite/datasets/imagenet/train-00989-of-01024"
        string_val: "/home/tony/tflite/datasets/imagenet/train-00990-of-01024"
        string_val: "/home/tony/tflite/datasets/imagenet/train-00991-of-01024"
        string_val: "/home/tony/tflite/datasets/imagenet/train-00992-of-01024"
        string_val: "/home/tony/tflite/datasets/imagenet/train-00993-of-01024"
        string_val: "/home/tony/tflite/datasets/imagenet/train-00994-of-01024"
        string_val: "/home/tony/tflite/datasets/imagenet/train-00995-of-01024"
        string_val: "/home/tony/tflite/datasets/imagenet/train-00996-of-01024"
        string_val: "/home/tony/tflite/datasets/imagenet/train-00997-of-01024"
        string_val: "/home/tony/tflite/datasets/imagenet/train-00998-of-01024"
        string_val: "/home/tony/tflite/datasets/imagenet/train-00999-of-01024"
        string_val: "/home/tony/tflite/datasets/imagenet/train-01000-of-01024"
        string_val: "/home/tony/tflite/datasets/imagenet/train-01001-of-01024"
        string_val: "/home/tony/tflite/datasets/imagenet/train-01002-of-01024"
        string_val: "/home/tony/tflite/datasets/imagenet/train-01003-of-01024"
        string_val: "/home/tony/tflite/datasets/imagenet/train-01004-of-01024"
        string_val: "/home/tony/tflite/datasets/imagenet/train-01005-of-01024"
        string_val: "/home/tony/tflite/datasets/imagenet/train-01006-of-01024"
        string_val: "/home/tony/tflite/datasets/imagenet/train-01007-of-01024"
        string_val: "/home/tony/tflite/datasets/imagenet/train-01008-of-01024"
        string_val: "/home/tony/tflite/datasets/imagenet/train-01009-of-01024"
        string_val: "/home/tony/tflite/datasets/imagenet/train-01010-of-01024"
        string_val: "/home/tony/tflite/datasets/imagenet/train-01011-of-01024"
        string_val: "/home/tony/tflite/datasets/imagenet/train-01012-of-01024"
        string_val: "/home/tony/tflite/datasets/imagenet/train-01013-of-01024"
        string_val: "/home/tony/tflite/datasets/imagenet/train-01014-of-01024"
        string_val: "/home/tony/tflite/datasets/imagenet/train-01015-of-01024"
        string_val: "/home/tony/tflite/datasets/imagenet/train-01016-of-01024"
        string_val: "/home/tony/tflite/datasets/imagenet/train-01017-of-01024"
        string_val: "/home/tony/tflite/datasets/imagenet/train-01018-of-01024"
        string_val: "/home/tony/tflite/datasets/imagenet/train-01019-of-01024"
        string_val: "/home/tony/tflite/datasets/imagenet/train-01020-of-01024"
        string_val: "/home/tony/tflite/datasets/imagenet/train-01021-of-01024"
        string_val: "/home/tony/tflite/datasets/imagenet/train-01022-of-01024"
        string_val: "/home/tony/tflite/datasets/imagenet/train-01023-of-01024"
      }
    }
  }
}
node {
  name: "buffer_size"
  op: "Const"
  device: "/device:CPU:0"
  attr {
    key: "_output_shapes"
    value {
      list {
        shape {
        }
      }
    }
  }
  attr {
    key: "dtype"
    value {
      type: DT_INT64
    }
  }
  attr {
    key: "value"
    value {
      tensor {
        dtype: DT_INT64
        tensor_shape {
        }
        int64_val: 1024
      }
    }
  }
}
node {
  name: "seed"
  op: "Const"
  device: "/device:CPU:0"
  attr {
    key: "_output_shapes"
    value {
      list {
        shape {
        }
      }
    }
  }
  attr {
    key: "dtype"
    value {
      type: DT_INT64
    }
  }
  attr {
    key: "value"
    value {
      tensor {
        dtype: DT_INT64
        tensor_shape {
        }
        int64_val: 0
      }
    }
  }
}
node {
  name: "seed2"
  op: "Const"
  device: "/device:CPU:0"
  attr {
    key: "_output_shapes"
    value {
      list {
        shape {
        }
      }
    }
  }
  attr {
    key: "dtype"
    value {
      type: DT_INT64
    }
  }
  attr {
    key: "value"
    value {
      tensor {
        dtype: DT_INT64
        tensor_shape {
        }
        int64_val: 0
      }
    }
  }
}
node {
  name: "buffer_size_1"
  op: "Const"
  device: "/device:CPU:0"
  attr {
    key: "_output_shapes"
    value {
      list {
        shape {
        }
      }
    }
  }
  attr {
    key: "dtype"
    value {
      type: DT_INT64
    }
  }
  attr {
    key: "value"
    value {
      tensor {
        dtype: DT_INT64
        tensor_shape {
        }
        int64_val: 32
      }
    }
  }
}
node {
  name: "buffer_size_2"
  op: "Const"
  device: "/device:CPU:0"
  attr {
    key: "_output_shapes"
    value {
      list {
        shape {
        }
      }
    }
  }
  attr {
    key: "dtype"
    value {
      type: DT_INT64
    }
  }
  attr {
    key: "value"
    value {
      tensor {
        dtype: DT_INT64
        tensor_shape {
        }
        int64_val: 1500
      }
    }
  }
}
node {
  name: "seed_1"
  op: "Const"
  device: "/device:CPU:0"
  attr {
    key: "_output_shapes"
    value {
      list {
        shape {
        }
      }
    }
  }
  attr {
    key: "dtype"
    value {
      type: DT_INT64
    }
  }
  attr {
    key: "value"
    value {
      tensor {
        dtype: DT_INT64
        tensor_shape {
        }
        int64_val: 0
      }
    }
  }
}
node {
  name: "seed2_1"
  op: "Const"
  device: "/device:CPU:0"
  attr {
    key: "_output_shapes"
    value {
      list {
        shape {
        }
      }
    }
  }
  attr {
    key: "dtype"
    value {
      type: DT_INT64
    }
  }
  attr {
    key: "value"
    value {
      tensor {
        dtype: DT_INT64
        tensor_shape {
        }
        int64_val: 0
      }
    }
  }
}
node {
  name: "count"
  op: "Const"
  device: "/device:CPU:0"
  attr {
    key: "_output_shapes"
    value {
      list {
        shape {
        }
      }
    }
  }
  attr {
    key: "dtype"
    value {
      type: DT_INT64
    }
  }
  attr {
    key: "value"
    value {
      tensor {
        dtype: DT_INT64
        tensor_shape {
        }
        int64_val: 1
      }
    }
  }
}
node {
  name: "num_parallel_calls"
  op: "Const"
  device: "/device:CPU:0"
  attr {
    key: "_output_shapes"
    value {
      list {
        shape {
        }
      }
    }
  }
  attr {
    key: "dtype"
    value {
      type: DT_INT32
    }
  }
  attr {
    key: "value"
    value {
      tensor {
        dtype: DT_INT32
        tensor_shape {
        }
        int_val: 5
      }
    }
  }
}
node {
  name: "batch_size"
  op: "Const"
  device: "/device:CPU:0"
  attr {
    key: "_output_shapes"
    value {
      list {
        shape {
        }
      }
    }
  }
  attr {
    key: "dtype"
    value {
      type: DT_INT64
    }
  }
  attr {
    key: "value"
    value {
      tensor {
        dtype: DT_INT64
        tensor_shape {
        }
        int64_val: 32
      }
    }
  }
}
node {
  name: "buffer_size_3"
  op: "Const"
  device: "/device:CPU:0"
  attr {
    key: "_output_shapes"
    value {
      list {
        shape {
        }
      }
    }
  }
  attr {
    key: "dtype"
    value {
      type: DT_INT64
    }
  }
  attr {
    key: "value"
    value {
      tensor {
        dtype: DT_INT64
        tensor_shape {
        }
        int64_val: 1
      }
    }
  }
}
node {
  name: "Iterator"
  op: "Iterator"
  attr {
    key: "_output_shapes"
    value {
      list {
        shape {
        }
      }
    }
  }
  attr {
    key: "container"
    value {
      s: ""
    }
  }
  attr {
    key: "output_shapes"
    value {
      list {
        shape {
          dim {
            size: -1
          }
          dim {
            size: 224
          }
          dim {
            size: 224
          }
          dim {
            size: 3
          }
        }
        shape {
          dim {
            size: -1
          }
          dim {
            size: 1001
          }
        }
      }
    }
  }
  attr {
    key: "output_types"
    value {
      list {
        type: DT_FLOAT
        type: DT_FLOAT
      }
    }
  }
  attr {
    key: "shared_name"
    value {
      s: ""
    }
  }
}
node {
  name: "TensorSliceDataset"
  op: "TensorSliceDataset"
  input: "tensors/component_0"
  attr {
    key: "Toutput_types"
    value {
      list {
        type: DT_STRING
      }
    }
  }
  attr {
    key: "_class"
    value {
      list {
        s: "loc:@Iterator"
      }
    }
  }
  attr {
    key: "_output_shapes"
    value {
      list {
        shape {
        }
      }
    }
  }
  attr {
    key: "output_shapes"
    value {
      list {
        shape {
        }
      }
    }
  }
}
node {
  name: "ShuffleDataset"
  op: "ShuffleDataset"
  input: "TensorSliceDataset"
  input: "buffer_size"
  input: "seed"
  input: "seed2"
  attr {
    key: "_class"
    value {
      list {
        s: "loc:@Iterator"
      }
    }
  }
  attr {
    key: "_output_shapes"
    value {
      list {
        shape {
        }
      }
    }
  }
  attr {
    key: "output_shapes"
    value {
      list {
        shape {
        }
      }
    }
  }
  attr {
    key: "output_types"
    value {
      list {
        type: DT_STRING
      }
    }
  }
  attr {
    key: "reshuffle_each_iteration"
    value {
      b: true
    }
  }
}
node {
  name: "FlatMapDataset"
  op: "FlatMapDataset"
  input: "ShuffleDataset"
  attr {
    key: "Targuments"
    value {
      list {
      }
    }
  }
  attr {
    key: "_class"
    value {
      list {
        s: "loc:@Iterator"
      }
    }
  }
  attr {
    key: "_output_shapes"
    value {
      list {
        shape {
        }
      }
    }
  }
  attr {
    key: "f"
    value {
      func {
        name: "tf_map_func_1e0b8606"
      }
    }
  }
  attr {
    key: "output_shapes"
    value {
      list {
        shape {
        }
      }
    }
  }
  attr {
    key: "output_types"
    value {
      list {
        type: DT_STRING
      }
    }
  }
}
node {
  name: "PrefetchDataset"
  op: "PrefetchDataset"
  input: "FlatMapDataset"
  input: "buffer_size_1"
  attr {
    key: "_class"
    value {
      list {
        s: "loc:@Iterator"
      }
    }
  }
  attr {
    key: "_output_shapes"
    value {
      list {
        shape {
        }
      }
    }
  }
  attr {
    key: "output_shapes"
    value {
      list {
        shape {
        }
      }
    }
  }
  attr {
    key: "output_types"
    value {
      list {
        type: DT_STRING
      }
    }
  }
}
node {
  name: "ShuffleDataset_1"
  op: "ShuffleDataset"
  input: "PrefetchDataset"
  input: "buffer_size_2"
  input: "seed_1"
  input: "seed2_1"
  attr {
    key: "_class"
    value {
      list {
        s: "loc:@Iterator"
      }
    }
  }
  attr {
    key: "_output_shapes"
    value {
      list {
        shape {
        }
      }
    }
  }
  attr {
    key: "output_shapes"
    value {
      list {
        shape {
        }
      }
    }
  }
  attr {
    key: "output_types"
    value {
      list {
        type: DT_STRING
      }
    }
  }
  attr {
    key: "reshuffle_each_iteration"
    value {
      b: true
    }
  }
}
node {
  name: "RepeatDataset"
  op: "RepeatDataset"
  input: "ShuffleDataset_1"
  input: "count"
  attr {
    key: "_class"
    value {
      list {
        s: "loc:@Iterator"
      }
    }
  }
  attr {
    key: "_output_shapes"
    value {
      list {
        shape {
        }
      }
    }
  }
  attr {
    key: "output_shapes"
    value {
      list {
        shape {
        }
      }
    }
  }
  attr {
    key: "output_types"
    value {
      list {
        type: DT_STRING
      }
    }
  }
}
node {
  name: "ParallelMapDataset"
  op: "ParallelMapDataset"
  input: "RepeatDataset"
  input: "num_parallel_calls"
  attr {
    key: "Targuments"
    value {
      list {
      }
    }
  }
  attr {
    key: "_class"
    value {
      list {
        s: "loc:@Iterator"
      }
    }
  }
  attr {
    key: "_output_shapes"
    value {
      list {
        shape {
        }
      }
    }
  }
  attr {
    key: "f"
    value {
      func {
        name: "tf_map_func_3856ed50"
      }
    }
  }
  attr {
    key: "output_shapes"
    value {
      list {
        shape {
          dim {
            size: 224
          }
          dim {
            size: 224
          }
          dim {
            size: 3
          }
        }
        shape {
          dim {
            size: 1001
          }
        }
      }
    }
  }
  attr {
    key: "output_types"
    value {
      list {
        type: DT_FLOAT
        type: DT_FLOAT
      }
    }
  }
}
node {
  name: "BatchDataset"
  op: "BatchDataset"
  input: "ParallelMapDataset"
  input: "batch_size"
  attr {
    key: "_class"
    value {
      list {
        s: "loc:@Iterator"
      }
    }
  }
  attr {
    key: "_output_shapes"
    value {
      list {
        shape {
        }
      }
    }
  }
  attr {
    key: "output_shapes"
    value {
      list {
        shape {
          dim {
            size: -1
          }
          dim {
            size: 224
          }
          dim {
            size: 224
          }
          dim {
            size: 3
          }
        }
        shape {
          dim {
            size: -1
          }
          dim {
            size: 1001
          }
        }
      }
    }
  }
  attr {
    key: "output_types"
    value {
      list {
        type: DT_FLOAT
        type: DT_FLOAT
      }
    }
  }
}
node {
  name: "PrefetchDataset_1"
  op: "PrefetchDataset"
  input: "BatchDataset"
  input: "buffer_size_3"
  attr {
    key: "_class"
    value {
      list {
        s: "loc:@Iterator"
      }
    }
  }
  attr {
    key: "_output_shapes"
    value {
      list {
        shape {
        }
      }
    }
  }
  attr {
    key: "output_shapes"
    value {
      list {
        shape {
          dim {
            size: -1
          }
          dim {
            size: 224
          }
          dim {
            size: 224
          }
          dim {
            size: 3
          }
        }
        shape {
          dim {
            size: -1
          }
          dim {
            size: 1001
          }
        }
      }
    }
  }
  attr {
    key: "output_types"
    value {
      list {
        type: DT_FLOAT
        type: DT_FLOAT
      }
    }
  }
}
node {
  name: "MakeIterator"
  op: "MakeIterator"
  input: "PrefetchDataset_1"
  input: "Iterator"
  attr {
    key: "_class"
    value {
      list {
        s: "loc:@Iterator"
      }
    }
  }
}
node {
  name: "IteratorToStringHandle"
  op: "IteratorToStringHandle"
  input: "Iterator"
  attr {
    key: "_output_shapes"
    value {
      list {
        shape {
        }
      }
    }
  }
}
node {
  name: "IteratorGetNext"
  op: "IteratorGetNext"
  input: "Iterator"
  attr {
    key: "_output_shapes"
    value {
      list {
        shape {
          dim {
            size: -1
          }
          dim {
            size: 224
          }
          dim {
            size: 224
          }
          dim {
            size: 3
          }
        }
        shape {
          dim {
            size: -1
          }
          dim {
            size: 1001
          }
        }
      }
    }
  }
  attr {
    key: "output_shapes"
    value {
      list {
        shape {
          dim {
            size: -1
          }
          dim {
            size: 224
          }
          dim {
            size: 224
          }
          dim {
            size: 3
          }
        }
        shape {
          dim {
            size: -1
          }
          dim {
            size: 1001
          }
        }
      }
    }
  }
  attr {
    key: "output_types"
    value {
      list {
        type: DT_FLOAT
        type: DT_FLOAT
      }
    }
  }
}
node {
  name: "images/tag"
  op: "Const"
  attr {
    key: "_output_shapes"
    value {
      list {
        shape {
        }
      }
    }
  }
  attr {
    key: "dtype"
    value {
      type: DT_STRING
    }
  }
  attr {
    key: "value"
    value {
      tensor {
        dtype: DT_STRING
        tensor_shape {
        }
        string_val: "images"
      }
    }
  }
}
node {
  name: "images"
  op: "ImageSummary"
  input: "images/tag"
  input: "IteratorGetNext"
  attr {
    key: "T"
    value {
      type: DT_FLOAT
    }
  }
  attr {
    key: "_output_shapes"
    value {
      list {
        shape {
        }
      }
    }
  }
  attr {
    key: "bad_color"
    value {
      tensor {
        dtype: DT_UINT8
        tensor_shape {
          dim {
            size: 4
          }
        }
        int_val: 255
        int_val: 0
        int_val: 0
        int_val: 255
      }
    }
  }
  attr {
    key: "max_images"
    value {
      i: 6
    }
  }
}
node {
  name: "Pad/paddings"
  op: "Const"
  attr {
    key: "_output_shapes"
    value {
      list {
        shape {
          dim {
            size: 4
          }
          dim {
            size: 2
          }
        }
      }
    }
  }
  attr {
    key: "dtype"
    value {
      type: DT_INT32
    }
  }
  attr {
    key: "value"
    value {
      tensor {
        dtype: DT_INT32
        tensor_shape {
          dim {
            size: 4
          }
          dim {
            size: 2
          }
        }
        tensor_content: "…"
      }
    }
  }
}
node {
  name: "Pad"
  op: "Pad"
  input: "IteratorGetNext"
  input: "Pad/paddings"
  attr {
    key: "T"
    value {
      type: DT_FLOAT
    }
  }
  attr {
    key: "Tpaddings"
    value {
      type: DT_INT32
    }
  }
  attr {
    key: "_output_shapes"
    value {
      list {
        shape {
          dim {
            size: -1
          }
          dim {
            size: 230
          }
          dim {
            size: 230
          }
          dim {
            size: 3
          }
        }
      }
    }
  }
}
node {
  name: "conv2d/kernel/Initializer/truncated_normal/shape"
  op: "Const"
  attr {
    key: "_class"
    value {
      list {
        s: "loc:@conv2d/kernel"
      }
    }
  }
  attr {
    key: "_output_shapes"
    value {
      list {
        shape {
          dim {
            size: 4
          }
        }
      }
    }
  }
  attr {
    key: "dtype"
    value {
      type: DT_INT32
    }
  }
  attr {
    key: "value"
    value {
      tensor {
        dtype: DT_INT32
        tensor_shape {
          dim {
            size: 4
          }
        }
        tensor_content: "\007\000\000\000\007\000\000\000\003\000\000\000@\000\000\000"
      }
    }
  }
}
node {
  name: "conv2d/kernel/Initializer/truncated_normal/mean"
  op: "Const"
  attr {
    key: "_class"
    value {
      list {
        s: "loc:@conv2d/kernel"
      }
    }
  }
  attr {
    key: "_output_shapes"
    value {
      list {
        shape {
        }
      }
    }
  }
  attr {
    key: "dtype"
    value {
      type: DT_FLOAT
    }
  }
  attr {
    key: "value"
    value {
      tensor {
        dtype: DT_FLOAT
        tensor_shape {
        }
        float_val: 0.0
      }
    }
  }
}
node {
  name: "conv2d/kernel/Initializer/truncated_normal/stddev"
  op: "Const"
  attr {
    key: "_class"
    value {
      list {
        s: "loc:@conv2d/kernel"
      }
    }
  }
  attr {
    key: "_output_shapes"
    value {
      list {
        shape {
        }
      }
    }
  }
  attr {
    key: "dtype"
    value {
      type: DT_FLOAT
    }
  }
  attr {
    key: "value"
    value {
      tensor {
        dtype: DT_FLOAT
        tensor_shape {
        }
        float_val: 0.0824786126614
      }
    }
  }
}
node {
  name: "conv2d/kernel/Initializer/truncated_normal/TruncatedNormal"
  op: "TruncatedNormal"
  input: "conv2d/kernel/Initializer/truncated_normal/shape"
  attr {
    key: "T"
    value {
      type: DT_INT32
    }
  }
  attr {
    key: "_class"
    value {
      list {
        s: "loc:@conv2d/kernel"
      }
    }
  }
  attr {
    key: "_output_shapes"
    value {
      list {
        shape {
          dim {
            size: 7
          }
          dim {
            size: 7
          }
          dim {
            size: 3
          }
          dim {
            size: 64
          }
        }
      }
    }
  }
  attr {
    key: "dtype"
    value {
      type: DT_FLOAT
    }
  }
  attr {
    key: "seed"
    value {
      i: 0
    }
  }
  attr {
    key: "seed2"
    value {
      i: 0
    }
  }
}
node {
  name: "conv2d/kernel/Initializer/truncated_normal/mul"
  op: "Mul"
  input: "conv2d/kernel/Initializer/truncated_normal/TruncatedNormal"
  input: "conv2d/kernel/Initializer/truncated_normal/stddev"
  attr {
    key: "T"
    value {
      type: DT_FLOAT
    }
  }
  attr {
    key: "_class"
    value {
      list {
        s: "loc:@conv2d/kernel"
      }
    }
  }
  attr {
    key: "_output_shapes"
    value {
      list {
        shape {
          dim {
            size: 7
          }
          dim {
            size: 7
          }
          dim {
            size: 3
          }
          dim {
            size: 64
          }
        }
      }
    }
  }
}
node {
  name: "conv2d/kernel/Initializer/truncated_normal"
  op: "Add"
  input: "conv2d/kernel/Initializer/truncated_normal/mul"
  input: "conv2d/kernel/Initializer/truncated_normal/mean"
  attr {
    key: "T"
    value {
      type: DT_FLOAT
    }
  }
  attr {
    key: "_class"
    value {
      list {
        s: "loc:@conv2d/kernel"
      }
    }
  }
  attr {
    key: "_output_shapes"
    value {
      list {
        shape {
          dim {
            size: 7
          }
          dim {
            size: 7
          }
          dim {
            size: 3
          }
          dim {
            size: 64
          }
        }
      }
    }
  }
}
node {
  name: "conv2d/kernel"
  op: "VariableV2"
  attr {
    key: "_class"
    value {
      list {
        s: "loc:@conv2d/kernel"
      }
    }
  }
  attr {
    key: "_output_shapes"
    value {
      list {
        shape {
          dim {
            size: 7
          }
          dim {
            size: 7
          }
          dim {
            size: 3
          }
          dim {
            size: 64
          }
        }
      }
    }
  }
  attr {
    key: "container"
    value {
      s: ""
    }
  }
  attr {
    key: "dtype"
    value {
      type: DT_FLOAT
    }
  }
  attr {
    key: "shape"
    value {
      shape {
        dim {
          size: 7
        }
        dim {
          size: 7
        }
        dim {
          size: 3
        }
        dim {
          size: 64
        }
      }
    }
  }
  attr {
    key: "shared_name"
    value {
      s: ""
    }
  }
}
node {
  name: "conv2d/kernel/Assign"
  op: "Assign"
  input: "conv2d/kernel"
  input: "conv2d/kernel/Initializer/truncated_normal"
  attr {
    key: "T"
    value {
      type: DT_FLOAT
    }
  }
  attr {
    key: "_class"
    value {
      list {
        s: "loc:@conv2d/kernel"
      }
    }
  }
  attr {
    key: "_output_shapes"
    value {
      list {
        shape {
          dim {
            size: 7
          }
          dim {
            size: 7
          }
          dim {
            size: 3
          }
          dim {
            size: 64
          }
        }
      }
    }
  }
  attr {
    key: "use_locking"
    value {
      b: true
    }
  }
  attr {
    key: "validate_shape"
    value {
      b: true
    }
  }
}
node {
  name: "conv2d/kernel/read"
  op: "Identity"
  input: "conv2d/kernel"
  attr {
    key: "T"
    value {
      type: DT_FLOAT
    }
  }
  attr {
    key: "_class"
    value {
      list {
        s: "loc:@conv2d/kernel"
      }
    }
  }
  attr {
    key: "_output_shapes"
    value {
      list {
        shape {
          dim {
            size: 7
          }
          dim {
            size: 7
          }
          dim {
            size: 3
          }
          dim {
            size: 64
          }
        }
      }
    }
  }
}
node {
  name: "conv2d/dilation_rate"
  op: "Const"
  attr {
    key: "_output_shapes"
    value {
      list {
        shape {
          dim {
            size: 2
          }
        }
      }
    }
  }
  attr {
    key: "dtype"
    value {
      type: DT_INT32
    }
  }
  attr {
    key: "value"
    value {
      tensor {
        dtype: DT_INT32
        tensor_shape {
          dim {
            size: 2
          }
        }
        tensor_content: "\001\000\000\000\001\000\000\000"
      }
    }
  }
}
node {
  name: "conv2d/Conv2D"
  op: "Conv2D"
  input: "Pad"
  input: "conv2d/kernel/read"
  attr {
    key: "T"
    value {
      type: DT_FLOAT
    }
  }
  attr {
    key: "_output_shapes"
    value {
      list {
        shape {
          dim {
            size: -1
          }
          dim {
            size: 112
          }
          dim {
            size: 112
          }
          dim {
            size: 64
          }
        }
      }
    }
  }
  attr {
    key: "data_format"
    value {
      s: "NHWC"
    }
  }
  attr {
    key: "dilations"
    value {
      list {
        i: 1
        i: 1
        i: 1
        i: 1
      }
    }
  }
  attr {
    key: "padding"
    value {
      s: "VALID"
    }
  }
  attr {
    key: "strides"
    value {
      list {
        i: 1
        i: 2
        i: 2
        i: 1
      }
    }
  }
  attr {
    key: "use_cudnn_on_gpu"
    value {
      b: true
    }
  }
}
node {
  name: "initial_conv"
  op: "Identity"
  input: "conv2d/Conv2D"
  attr {
    key: "T"
    value {
      type: DT_FLOAT
    }
  }
  attr {
    key: "_output_shapes"
    value {
      list {
        shape {
          dim {
            size: -1
          }
          dim {
            size: 112
          }
          dim {
            size: 112
          }
          dim {
            size: 64
          }
        }
      }
    }
  }
}
node {
  name: "max_pooling2d/MaxPool"
  op: "MaxPool"
  input: "initial_conv"
  attr {
    key: "T"
    value {
      type: DT_FLOAT
    }
  }
  attr {
    key: "_output_shapes"
    value {
      list {
        shape {
          dim {
            size: -1
          }
          dim {
            size: 56
          }
          dim {
            size: 56
          }
          dim {
            size: 64
          }
        }
      }
    }
  }
  attr {
    key: "data_format"
    value {
      s: "NHWC"
    }
  }
  attr {
    key: "ksize"
    value {
      list {
        i: 1
        i: 3
        i: 3
        i: 1
      }
    }
  }
  attr {
    key: "padding"
    value {
      s: "SAME"
    }
  }
  attr {
    key: "strides"
    value {
      list {
        i: 1
        i: 2
        i: 2
        i: 1
      }
    }
  }
}
node {
  name: "initial_max_pool"
  op: "Identity"
  input: "max_pooling2d/MaxPool"
  attr {
    key: "T"
    value {
      type: DT_FLOAT
    }
  }
  attr {
    key: "_output_shapes"
    value {
      list {
        shape {
          dim {
            size: -1
          }
          dim {
            size: 56
          }
          dim {
            size: 56
          }
          dim {
            size: 64
          }
        }
      }
    }
  }
}
node {
  name: "conv2d_1/kernel/Initializer/truncated_normal/shape"
  op: "Const"
  attr {
    key: "_class"
    value {
      list {
        s: "loc:@conv2d_1/kernel"
      }
    }
  }
  attr {
    key: "_output_shapes"
    value {
      list {
        shape {
          dim {
            size: 4
          }
        }
      }
    }
  }
  attr {
    key: "dtype"
    value {
      type: DT_INT32
    }
  }
  attr {
    key: "value"
    value {
      tensor {
        dtype: DT_INT32
        tensor_shape {
          dim {
            size: 4
          }
        }
        tensor_content: "\001\000\000\000\001\000\000\000@\000\000\000@\000\000\000"
      }
    }
  }
}
node {
  name: "conv2d_1/kernel/Initializer/truncated_normal/mean"
  op: "Const"
  attr {
    key: "_class"
    value {
      list {
        s: "loc:@conv2d_1/kernel"
      }
    }
  }
  attr {
    key: "_output_shapes"
    value {
      list {
        shape {
        }
      }
    }
  }
  attr {
    key: "dtype"
    value {
      type: DT_FLOAT
    }
  }
  attr {
    key: "value"
    value {
      tensor {
        dtype: DT_FLOAT
        tensor_shape {
        }
        float_val: 0.0
      }
    }
  }
}
node {
  name: "conv2d_1/kernel/Initializer/truncated_normal/stddev"
  op: "Const"
  attr {
    key: "_class"
    value {
      list {
        s: "loc:@conv2d_1/kernel"
      }
    }
  }
  attr {
    key: "_output_shapes"
    value {
      list {
        shape {
        }
      }
    }
  }
  attr {
    key: "dtype"
    value {
      type: DT_FLOAT
    }
  }
  attr {
    key: "value"
    value {
      tensor {
        dtype: DT_FLOAT
        tensor_shape {
        }
        float_val: 0.125
      }
    }
  }
}
node {
  name: "conv2d_1/kernel/Initializer/truncated_normal/TruncatedNormal"
  op: "TruncatedNormal"
  input: "conv2d_1/kernel/Initializer/truncated_normal/shape"
  attr {
    key: "T"
    value {
      type: DT_INT32
    }
  }
  attr {
    key: "_class"
    value {
      list {
        s: "loc:@conv2d_1/kernel"
      }
    }
  }
  attr {
    key: "_output_shapes"
    value {
      list {
        shape {
          dim {
            size: 1
          }
          dim {
            size: 1
          }
          dim {
            size: 64
          }
          dim {
            size: 64
          }
        }
      }
    }
  }
  attr {
    key: "dtype"
    value {
      type: DT_FLOAT
    }
  }
  attr {
    key: "seed"
    value {
      i: 0
    }
  }
  attr {
    key: "seed2"
    value {
      i: 0
    }
  }
}
node {
  name: "conv2d_1/kernel/Initializer/truncated_normal/mul"
  op: "Mul"
  input: "conv2d_1/kernel/Initializer/truncated_normal/TruncatedNormal"
  input: "conv2d_1/kernel/Initializer/truncated_normal/stddev"
  attr {
    key: "T"
    value {
      type: DT_FLOAT
    }
  }
  attr {
    key: "_class"
    value {
      list {
        s: "loc:@conv2d_1/kernel"
      }
    }
  }
  attr {
    key: "_output_shapes"
    value {
      list {
        shape {
          dim {
            size: 1
          }
          dim {
            size: 1
          }
          dim {
            size: 64
          }
          dim {
            size: 64
          }
        }
      }
    }
  }
}
node {
  name: "conv2d_1/kernel/Initializer/truncated_normal"
  op: "Add"
  input: "conv2d_1/kernel/Initializer/truncated_normal/mul"
  input: "conv2d_1/kernel/Initializer/truncated_normal/mean"
  attr {
    key: "T"
    value {
      type: DT_FLOAT
    }
  }
  attr {
    key: "_class"
    value {
      list {
        s: "loc:@conv2d_1/kernel"
      }
    }
  }
  attr {
    key: "_output_shapes"
    value {
      list {
        shape {
          dim {
            size: 1
          }
          dim {
            size: 1
          }
          dim {
            size: 64
          }
          dim {
            size: 64
          }
        }
      }
    }
  }
}
node {
  name: "conv2d_1/kernel"
  op: "VariableV2"
  attr {
    key: "_class"
    value {
      list {
        s: "loc:@conv2d_1/kernel"
      }
    }
  }
  attr {
    key: "_output_shapes"
    value {
      list {
        shape {
          dim {
            size: 1
          }
          dim {
            size: 1
          }
          dim {
            size: 64
          }
          dim {
            size: 64
          }
        }
      }
    }
  }
  attr {
    key: "container"
    value {
      s: ""
    }
  }
  attr {
    key: "dtype"
    value {
      type: DT_FLOAT
    }
  }
  attr {
    key: "shape"
    value {
      shape {
        dim {
          size: 1
        }
        dim {
          size: 1
        }
        dim {
          size: 64
        }
        dim {
          size: 64
        }
      }
    }
  }
  attr {
    key: "shared_name"
    value {
      s: ""
    }
  }
}
node {
  name: "conv2d_1/kernel/Assign"
  op: "Assign"
  input: "conv2d_1/kernel"
  input: "conv2d_1/kernel/Initializer/truncated_normal"
  attr {
    key: "T"
    value {
      type: DT_FLOAT
    }
  }
  attr {
    key: "_class"
    value {
      list {
        s: "loc:@conv2d_1/kernel"
      }
    }
  }
  attr {
    key: "_output_shapes"
    value {
      list {
        shape {
          dim {
            size: 1
          }
          dim {
            size: 1
          }
          dim {
            size: 64
          }
          dim {
            size: 64
          }
        }
      }
    }
  }
  attr {
    key: "use_locking"
    value {
      b: true
    }
  }
  attr {
    key: "validate_shape"
    value {
      b: true
    }
  }
}
node {
  name: "conv2d_1/kernel/read"
  op: "Identity"
  input: "conv2d_1/kernel"
  attr {
    key: "T"
    value {
      type: DT_FLOAT
    }
  }
  attr {
    key: "_class"
    value {
      list {
        s: "loc:@conv2d_1/kernel"
      }
    }
  }
  attr {
    key: "_output_shapes"
    value {
      list {
        shape {
          dim {
            size: 1
          }
          dim {
            size: 1
          }
          dim {
            size: 64
          }
          dim {
            size: 64
          }
        }
      }
    }
  }
}
node {
  name: "conv2d_1/dilation_rate"
  op: "Const"
  attr {
    key: "_output_shapes"
    value {
      list {
        shape {
          dim {
            size: 2
          }
        }
      }
    }
  }
  attr {
    key: "dtype"
    value {
      type: DT_INT32
    }
  }
  attr {
    key: "value"
    value {
      tensor {
        dtype: DT_INT32
        tensor_shape {
          dim {
            size: 2
          }
        }
        tensor_content: "\001\000\000\000\001\000\000\000"
      }
    }
  }
}
node {
  name: "conv2d_1/Conv2D"
  op: "Conv2D"
  input: "initial_max_pool"
  input: "conv2d_1/kernel/read"
  attr {
    key: "T"
    value {
      type: DT_FLOAT
    }
  }
  attr {
    key: "_output_shapes"
    value {
      list {
        shape {
          dim {
            size: -1
          }
          dim {
            size: 56
          }
          dim {
            size: 56
          }
          dim {
            size: 64
          }
        }
      }
    }
  }
  attr {
    key: "data_format"
    value {
      s: "NHWC"
    }
  }
  attr {
    key: "dilations"
    value {
      list {
        i: 1
        i: 1
        i: 1
        i: 1
      }
    }
  }
  attr {
    key: "padding"
    value {
      s: "SAME"
    }
  }
  attr {
    key: "strides"
    value {
      list {
        i: 1
        i: 1
        i: 1
        i: 1
      }
    }
  }
  attr {
    key: "use_cudnn_on_gpu"
    value {
      b: true
    }
  }
}
node {
  name: "batch_normalization/gamma/Initializer/ones/shape_as_tensor"
  op: "Const"
  attr {
    key: "_class"
    value {
      list {
        s: "loc:@batch_normalization/gamma"
      }
    }
  }
  attr {
    key: "_output_shapes"
    value {
      list {
        shape {
          dim {
            size: 1
          }
        }
      }
    }
  }
  attr {
    key: "dtype"
    value {
      type: DT_INT32
    }
  }
  attr {
    key: "value"
    value {
      tensor {
        dtype: DT_INT32
        tensor_shape {
          dim {
            size: 1
          }
        }
        int_val: 64
      }
    }
  }
}
node {
  name: "batch_normalization/gamma/Initializer/ones/Const"
  op: "Const"
  attr {
    key: "_class"
    value {
      list {
        s: "loc:@batch_normalization/gamma"
      }
    }
  }
  attr {
    key: "_output_shapes"
    value {
      list {
        shape {
        }
      }
    }
  }
  attr {
    key: "dtype"
    value {
      type: DT_FLOAT
    }
  }
  attr {
    key: "value"
    value {
      tensor {
        dtype: DT_FLOAT
        tensor_shape {
        }
        float_val: 1.0
      }
    }
  }
}
node {
  name: "batch_normalization/gamma/Initializer/ones"
  op: "Fill"
  input: "batch_normalization/gamma/Initializer/ones/shape_as_tensor"
  input: "batch_normalization/gamma/Initializer/ones/Const"
  attr {
    key: "T"
    value {
      type: DT_FLOAT
    }
  }
  attr {
    key: "_class"
    value {
      list {
        s: "loc:@batch_normalization/gamma"
      }
    }
  }
  attr {
    key: "_output_shapes"
    value {
      list {
        shape {
          dim {
            size: 64
          }
        }
      }
    }
  }
  attr {
    key: "index_type"
    value {
      type: DT_INT32
    }
  }
}
node {
  name: "batch_normalization/gamma"
  op: "VariableV2"
  attr {
    key: "_class"
    value {
      list {
        s: "loc:@batch_normalization/gamma"
      }
    }
  }
  attr {
    key: "_output_shapes"
    value {
      list {
        shape {
          dim {
            size: 64
          }
        }
      }
    }
  }
  attr {
    key: "container"
    value {
      s: ""
    }
  }
  attr {
    key: "dtype"
    value {
      type: DT_FLOAT
    }
  }
  attr {
    key: "shape"
    value {
      shape {
        dim {
          size: 64
        }
      }
    }
  }
  attr {
    key: "shared_name"
    value {
      s: ""
    }
  }
}
node {
  name: "batch_normalization/gamma/Assign"
  op: "Assign"
  input: "batch_normalization/gamma"
  input: "batch_normalization/gamma/Initializer/ones"
  attr {
    key: "T"
    value {
      type: DT_FLOAT
    }
  }
  attr {
    key: "_class"
    value {
      list {
        s: "loc:@batch_normalization/gamma"
      }
    }
  }
  attr {
    key: "_output_shapes"
    value {
      list {
        shape {
          dim {
            size: 64
          }
        }
      }
    }
  }
  attr {
    key: "use_locking"
    value {
      b: true
    }
  }
  attr {
    key: "validate_shape"
    value {
      b: true
    }
  }
}
node {
  name: "batch_normalization/gamma/read"
  op: "Identity"
  input: "batch_normalization/gamma"
  attr {
    key: "T"
    value {
      type: DT_FLOAT
    }
  }
  attr {
    key: "_class"
    value {
      list {
        s: "loc:@batch_normalization/gamma"
      }
    }
  }
  attr {
    key: "_output_shapes"
    value {
      list {
        shape {
          dim {
            size: 64
          }
        }
      }
    }
  }
}
node {
  name: "batch_normalization/beta/Initializer/zeros/shape_as_tensor"
  op: "Const"
  attr {
    key: "_class"
    value {
      list {
        s: "loc:@batch_normalization/beta"
      }
    }
  }
  attr {
    key: "_output_shapes"
    value {
      list {
        shape {
          dim {
            size: 1
          }
        }
      }
    }
  }
  attr {
    key: "dtype"
    value {
      type: DT_INT32
    }
  }
  attr {
    key: "value"
    value {
      tensor {
        dtype: DT_INT32
        tensor_shape {
          dim {
            size: 1
          }
        }
        int_val: 64
      }
    }
  }
}
node {
  name: "batch_normalization/beta/Initializer/zeros/Const"
  op: "Const"
  attr {
    key: "_class"
    value {
      list {
        s: "loc:@batch_normalization/beta"
      }
    }
  }
  attr {
    key: "_output_shapes"
    value {
      list {
        shape {
        }
      }
    }
  }
  attr {
    key: "dtype"
    value {
      type: DT_FLOAT
    }
  }
  attr {
    key: "value"
    value {
      tensor {
        dtype: DT_FLOAT
        tensor_shape {
        }
        float_val: 0.0
      }
    }
  }
}
node {
  name: "batch_normalization/beta/Initializer/zeros"
  op: "Fill"
  input: "batch_normalization/beta/Initializer/zeros/shape_as_tensor"
  input: "batch_normalization/beta/Initializer/zeros/Const"
  attr {
    key: "T"
    value {
      type: DT_FLOAT
    }
  }
  attr {
    key: "_class"
    value {
      list {
        s: "loc:@batch_normalization/beta"
      }
    }
  }
  attr {
    key: "_output_shapes"
    value {
      list {
        shape {
          dim {
            size: 64
          }
        }
      }
    }
  }
  attr {
    key: "index_type"
    value {
      type: DT_INT32
    }
  }
}
node {
  name: "batch_normalization/beta"
  op: "VariableV2"
  attr {
    key: "_class"
    value {
      list {
        s: "loc:@batch_normalization/beta"
      }
    }
  }
  attr {
    key: "_output_shapes"
    value {
      list {
        shape {
          dim {
            size: 64
          }
        }
      }
    }
  }
  attr {
    key: "container"
    value {
      s: ""
    }
  }
  attr {
    key: "dtype"
    value {
      type: DT_FLOAT
    }
  }
  attr {
    key: "shape"
    value {
      shape {
        dim {
          size: 64
        }
      }
    }
  }
  attr {
    key: "shared_name"
    value {
      s: ""
    }
  }
}
node {
  name: "batch_normalization/beta/Assign"
  op: "Assign"
  input: "batch_normalization/beta"
  input: "batch_normalization/beta/Initializer/zeros"
  attr {
    key: "T"
    value {
      type: DT_FLOAT
    }
  }
  attr {
    key: "_class"
    value {
      list {
        s: "loc:@batch_normalization/beta"
      }
    }
  }
  attr {
    key: "_output_shapes"
    value {
      list {
        shape {
          dim {
            size: 64
          }
        }
      }
    }
  }
  attr {
    key: "use_locking"
    value {
      b: true
    }
  }
  attr {
    key: "validate_shape"
    value {
      b: true
    }
  }
}
node {
  name: "batch_normalization/beta/read"
  op: "Identity"
  input: "batch_normalization/beta"
  attr {
    key: "T"
    value {
      type: DT_FLOAT
    }
  }
  attr {
    key: "_class"
    value {
      list {
        s: "loc:@batch_normalization/beta"
      }
    }
  }
  attr {
    key: "_output_shapes"
    value {
      list {
        shape {
          dim {
            size: 64
          }
        }
      }
    }
  }
}
node {
  name: "batch_normalization/moving_mean/Initializer/zeros/shape_as_tensor"
  op: "Const"
  attr {
    key: "_class"
    value {
      list {
        s: "loc:@batch_normalization/moving_mean"
      }
    }
  }
  attr {
    key: "_output_shapes"
    value {
      list {
        shape {
          dim {
            size: 1
          }
        }
      }
    }
  }
  attr {
    key: "dtype"
    value {
      type: DT_INT32
    }
  }
  attr {
    key: "value"
    value {
      tensor {
        dtype: DT_INT32
        tensor_shape {
          dim {
            size: 1
          }
        }
        int_val: 64
      }
    }
  }
}
node {
  name: "batch_normalization/moving_mean/Initializer/zeros/Const"
  op: "Const"
  attr {
    key: "_class"
    value {
      list {
        s: "loc:@batch_normalization/moving_mean"
      }
    }
  }
  attr {
    key: "_output_shapes"
    value {
      list {
        shape {
        }
      }
    }
  }
  attr {
    key: "dtype"
    value {
      type: DT_FLOAT
    }
  }
  attr {
    key: "value"
    value {
      tensor {
        dtype: DT_FLOAT
        tensor_shape {
        }
        float_val: 0.0
      }
    }
  }
}
node {
  name: "batch_normalization/moving_mean/Initializer/zeros"
  op: "Fill"
  input: "batch_normalization/moving_mean/Initializer/zeros/shape_as_tensor"
  input: "batch_normalization/moving_mean/Initializer/zeros/Const"
  attr {
    key: "T"
    value {
      type: DT_FLOAT
    }
  }
  attr {
    key: "_class"
    value {
      list {
        s: "loc:@batch_normalization/moving_mean"
      }
    }
  }
  attr {
    key: "_output_shapes"
    value {
      list {
        shape {
          dim {
            size: 64
          }
        }
      }
    }
  }
  attr {
    key: "index_type"
    value {
      type: DT_INT32
    }
  }
}
node {
  name: "batch_normalization/moving_mean"
  op: "VariableV2"
  attr {
    key: "_class"
    value {
      list {
        s: "loc:@batch_normalization/moving_mean"
      }
    }
  }
  attr {
    key: "_output_shapes"
    value {
      list {
        shape {
          dim {
            size: 64
          }
        }
      }
    }
  }
  attr {
    key: "container"
    value {
      s: ""
    }
  }
  attr {
    key: "dtype"
    value {
      type: DT_FLOAT
    }
  }
  attr {
    key: "shape"
    value {
      shape {
        dim {
          size: 64
        }
      }
    }
  }
  attr {
    key: "shared_name"
    value {
      s: ""
    }
  }
}
node {
  name: "batch_normalization/moving_mean/Assign"
  op: "Assign"
  input: "batch_normalization/moving_mean"
  input: "batch_normalization/moving_mean/Initializer/zeros"
  attr {
    key: "T"
    value {
      type: DT_FLOAT
    }
  }
  attr {
    key: "_class"
    value {
      list {
        s: "loc:@batch_normalization/moving_mean"
      }
    }
  }
  attr {
    key: "_output_shapes"
    value {
      list {
        shape {
          dim {
            size: 64
          }
        }
      }
    }
  }
  attr {
    key: "use_locking"
    value {
      b: true
    }
  }
  attr {
    key: "validate_shape"
    value {
      b: true
    }
  }
}
node {
  name: "batch_normalization/moving_mean/read"
  op: "Identity"
  input: "batch_normalization/moving_mean"
  attr {
    key: "T"
    value {
      type: DT_FLOAT
    }
  }
  attr {
    key: "_class"
    value {
      list {
        s: "loc:@batch_normalization/moving_mean"
      }
    }
  }
  attr {
    key: "_output_shapes"
    value {
      list {
        shape {
          dim {
            size: 64
          }
        }
      }
    }
  }
}
node {
  name: "batch_normalization/moving_variance/Initializer/ones/shape_as_tensor"
  op: "Const"
  attr {
    key: "_class"
    value {
      list {
        s: "loc:@batch_normalization/moving_variance"
      }
    }
  }
  attr {
    key: "_output_shapes"
    value {
      list {
        shape {
          dim {
            size: 1
          }
        }
      }
    }
  }
  attr {
    key: "dtype"
    value {
      type: DT_INT32
    }
  }
  attr {
    key: "value"
    value {
      tensor {
        dtype: DT_INT32
        tensor_shape {
          dim {
            size: 1
          }
        }
        int_val: 64
      }
    }
  }
}
node {
  name: "batch_normalization/moving_variance/Initializer/ones/Const"
  op: "Const"
  attr {
    key: "_class"
    value {
      list {
        s: "loc:@batch_normalization/moving_variance"
      }
    }
  }
  attr {
    key: "_output_shapes"
    value {
      list {
        shape {
        }
      }
    }
  }
  attr {
    key: "dtype"
    value {
      type: DT_FLOAT
    }
  }
  attr {
    key: "value"
    value {
      tensor {
        dtype: DT_FLOAT
        tensor_shape {
        }
        float_val: 1.0
      }
    }
  }
}
node {
  name: "batch_normalization/moving_variance/Initializer/ones"
  op: "Fill"
  input: "batch_normalization/moving_variance/Initializer/ones/shape_as_tensor"
  input: "batch_normalization/moving_variance/Initializer/ones/Const"
  attr {
    key: "T"
    value {
      type: DT_FLOAT
    }
  }
  attr {
    key: "_class"
    value {
      list {
        s: "loc:@batch_normalization/moving_variance"
      }
    }
  }
  attr {
    key: "_output_shapes"
    value {
      list {
        shape {
          dim {
            size: 64
          }
        }
      }
    }
  }
  attr {
    key: "index_type"
    value {
      type: DT_INT32
    }
  }
}
node {
  name: "batch_normalization/moving_variance"
  op: "VariableV2"
  attr {
    key: "_class"
    value {
      list {
        s: "loc:@batch_normalization/moving_variance"
      }
    }
  }
  attr {
    key: "_output_shapes"
    value {
      list {
        shape {
          dim {
            size: 64
          }
        }
      }
    }
  }
  attr {
    key: "container"
    value {
      s: ""
    }
  }
  attr {
    key: "dtype"
    value {
      type: DT_FLOAT
    }
  }
  attr {
    key: "shape"
    value {
      shape {
        dim {
          size: 64
        }
      }
    }
  }
  attr {
    key: "shared_name"
    value {
      s: ""
    }
  }
}
node {
  name: "batch_normalization/moving_variance/Assign"
  op: "Assign"
  input: "batch_normalization/moving_variance"
  input: "batch_normalization/moving_variance/Initializer/ones"
  attr {
    key: "T"
    value {
      type: DT_FLOAT
    }
  }
  attr {
    key: "_class"
    value {
      list {
        s: "loc:@batch_normalization/moving_variance"
      }
    }
  }
  attr {
    key: "_output_shapes"
    value {
      list {
        shape {
          dim {
            size: 64
          }
        }
      }
    }
  }
  attr {
    key: "use_locking"
    value {
      b: true
    }
  }
  attr {
    key: "validate_shape"
    value {
      b: true
    }
  }
}
node {
  name: "batch_normalization/moving_variance/read"
  op: "Identity"
  input: "batch_normalization/moving_variance"
  attr {
    key: "T"
    value {
      type: DT_FLOAT
    }
  }
  attr {
    key: "_class"
    value {
      list {
        s: "loc:@batch_normalization/moving_variance"
      }
    }
  }
  attr {
    key: "_output_shapes"
    value {
      list {
        shape {
          dim {
            size: 64
          }
        }
      }
    }
  }
}
node {
  name: "batch_normalization/FusedBatchNorm"
  op: "FusedBatchNorm"
  input: "conv2d_1/Conv2D"
  input: "batch_normalization/gamma/read"
  input: "batch_normalization/beta/read"
  input: "batch_normalization/moving_mean/read"
  input: "batch_normalization/moving_variance/read"
  attr {
    key: "T"
    value {
      type: DT_FLOAT
    }
  }
  attr {
    key: "_output_shapes"
    value {
      list {
        shape {
          dim {
            size: -1
          }
          dim {
            size: 56
          }
          dim {
            size: 56
          }
          dim {
            size: 64
          }
        }
        shape {
          dim {
            size: 64
          }
        }
        shape {
          dim {
            size: 64
          }
        }
        shape {
          dim {
            size: 64
          }
        }
        shape {
          dim {
            size: 64
          }
        }
      }
    }
  }
  attr {
    key: "data_format"
    value {
      s: "NHWC"
    }
  }
  attr {
    key: "epsilon"
    value {
      f: 1.00099996416e-05
    }
  }
  attr {
    key: "is_training"
    value {
      b: false
    }
  }
}
node {
  name: "batch_normalization/Const"
  op: "Const"
  attr {
    key: "_output_shapes"
    value {
      list {
        shape {
        }
      }
    }
  }
  attr {
    key: "dtype"
    value {
      type: DT_FLOAT
    }
  }
  attr {
    key: "value"
    value {
      tensor {
        dtype: DT_FLOAT
        tensor_shape {
        }
        float_val: 0.00300000002608
      }
    }
  }
}
node {
  name: "conv2d_2/kernel/Initializer/truncated_normal/shape"
  op: "Const"
  attr {
    key: "_class"
    value {
      list {
        s: "loc:@conv2d_2/kernel"
      }
    }
  }
  attr {
    key: "_output_shapes"
    value {
      list {
        shape {
          dim {
            size: 4
          }
        }
      }
    }
  }
  attr {
    key: "dtype"
    value {
      type: DT_INT32
    }
  }
  attr {
    key: "value"
    value {
      tensor {
        dtype: DT_INT32
        tensor_shape {
          dim {
            size: 4
          }
        }
        tensor_content: "\003\000\000\000\003\000\000\000@\000\000\000@\000\000\000"
      }
    }
  }
}
node {
  name: "conv2d_2/kernel/Initializer/truncated_normal/mean"
  op: "Const"
  attr {
    key: "_class"
    value {
      list {
        s: "loc:@conv2d_2/kernel"
      }
    }
  }
  attr {
    key: "_output_shapes"
    value {
      list {
        shape {
        }
      }
    }
  }
  attr {
    key: "dtype"
    value {
      type: DT_FLOAT
    }
  }
  attr {
    key: "value"
    value {
      tensor {
        dtype: DT_FLOAT
        tensor_shape {
        }
        float_val: 0.0
      }
    }
  }
}
node {
  name: "conv2d_2/kernel/Initializer/truncated_normal/stddev"
  op: "Const"
  attr {
    key: "_class"
    value {
      list {
        s: "loc:@conv2d_2/kernel"
      }
    }
  }
  attr {
    key: "_output_shapes"
    value {
      list {
        shape {
        }
      }
    }
  }
  attr {
    key: "dtype"
    value {
      type: DT_FLOAT
    }
  }
  attr {
    key: "value"
    value {
      tensor {
        dtype: DT_FLOAT
        tensor_shape {
        }
        float_val: 0.0416666679084
      }
    }
  }
}
node {
  name: "conv2d_2/kernel/Initializer/truncated_normal/TruncatedNormal"
  op: "TruncatedNormal"
  input: "conv2d_2/kernel/Initializer/truncated_normal/shape"
  attr {
    key: "T"
    value {
      type: DT_INT32
    }
  }
  attr {
    key: "_class"
    value {
      list {
        s: "loc:@conv2d_2/kernel"
      }
    }
  }
  attr {
    key: "_output_shapes"
    value {
      list {
        shape {
          dim {
            size: 3
          }
          dim {
            size: 3
          }
          dim {
            size: 64
          }
          dim {
            size: 64
          }
        }
      }
    }
  }
  attr {
    key: "dtype"
    value {
      type: DT_FLOAT
    }
  }
  attr {
    key: "seed"
    value {
      i: 0
    }
  }
  attr {
    key: "seed2"
    value {
      i: 0
    }
  }
}
node {
  name: "conv2d_2/kernel/Initializer/truncated_normal/mul"
  op: "Mul"
  input: "conv2d_2/kernel/Initializer/truncated_normal/TruncatedNormal"
  input: "conv2d_2/kernel/Initializer/truncated_normal/stddev"
  attr {
    key: "T"
    value {
      type: DT_FLOAT
    }
  }
  attr {
    key: "_class"
    value {
      list {
        s: "loc:@conv2d_2/kernel"
      }
    }
  }
  attr {
    key: "_output_shapes"
    value {
      list {
        shape {
          dim {
            size: 3
          }
          dim {
            size: 3
          }
          dim {
            size: 64
          }
          dim {
            size: 64
          }
        }
      }
    }
  }
}
node {
  name: "conv2d_2/kernel/Initializer/truncated_normal"
  op: "Add"
  input: "conv2d_2/kernel/Initializer/truncated_normal/mul"
  input: "conv2d_2/kernel/Initializer/truncated_normal/mean"
  attr {
    key: "T"
    value {
      type: DT_FLOAT
    }
  }
  attr {
    key: "_class"
    value {
      list {
        s: "loc:@conv2d_2/kernel"
      }
    }
  }
  attr {
    key: "_output_shapes"
    value {
      list {
        shape {
          dim {
            size: 3
          }
          dim {
            size: 3
          }
          dim {
            size: 64
          }
          dim {
            size: 64
          }
        }
      }
    }
  }
}
node {
  name: "conv2d_2/kernel"
  op: "VariableV2"
  attr {
    key: "_class"
    value {
      list {
        s: "loc:@conv2d_2/kernel"
      }
    }
  }
  attr {
    key: "_output_shapes"
    value {
      list {
        shape {
          dim {
            size: 3
          }
          dim {
            size: 3
          }
          dim {
            size: 64
          }
          dim {
            size: 64
          }
        }
      }
    }
  }
  attr {
    key: "container"
    value {
      s: ""
    }
  }
  attr {
    key: "dtype"
    value {
      type: DT_FLOAT
    }
  }
  attr {
    key: "shape"
    value {
      shape {
        dim {
          size: 3
        }
        dim {
          size: 3
        }
        dim {
          size: 64
        }
        dim {
          size: 64
        }
      }
    }
  }
  attr {
    key: "shared_name"
    value {
      s: ""
    }
  }
}
node {
  name: "conv2d_2/kernel/Assign"
  op: "Assign"
  input: "conv2d_2/kernel"
  input: "conv2d_2/kernel/Initializer/truncated_normal"
  attr {
    key: "T"
    value {
      type: DT_FLOAT
    }
  }
  attr {
    key: "_class"
    value {
      list {
        s: "loc:@conv2d_2/kernel"
      }
    }
  }
  attr {
    key: "_output_shapes"
    value {
      list {
        shape {
          dim {
            size: 3
          }
          dim {
            size: 3
          }
          dim {
            size: 64
          }
          dim {
            size: 64
          }
        }
      }
    }
  }
  attr {
    key: "use_locking"
    value {
      b: true
    }
  }
  attr {
    key: "validate_shape"
    value {
      b: true
    }
  }
}
node {
  name: "conv2d_2/kernel/read"
  op: "Identity"
  input: "conv2d_2/kernel"
  attr {
    key: "T"
    value {
      type: DT_FLOAT
    }
  }
  attr {
    key: "_class"
    value {
      list {
        s: "loc:@conv2d_2/kernel"
      }
    }
  }
  attr {
    key: "_output_shapes"
    value {
      list {
        shape {
          dim {
            size: 3
          }
          dim {
            size: 3
          }
          dim {
            size: 64
          }
          dim {
            size: 64
          }
        }
      }
    }
  }
}
node {
  name: "conv2d_2/dilation_rate"
  op: "Const"
  attr {
    key: "_output_shapes"
    value {
      list {
        shape {
          dim {
            size: 2
          }
        }
      }
    }
  }
  attr {
    key: "dtype"
    value {
      type: DT_INT32
    }
  }
  attr {
    key: "value"
    value {
      tensor {
        dtype: DT_INT32
        tensor_shape {
          dim {
            size: 2
          }
        }
        tensor_content: "\001\000\000\000\001\000\000\000"
      }
    }
  }
}
node {
  name: "conv2d_2/Conv2D"
  op: "Conv2D"
  input: "initial_max_pool"
  input: "conv2d_2/kernel/read"
  attr {
    key: "T"
    value {
      type: DT_FLOAT
    }
  }
  attr {
    key: "_output_shapes"
    value {
      list {
        shape {
          dim {
            size: -1
          }
          dim {
            size: 56
          }
          dim {
            size: 56
          }
          dim {
            size: 64
          }
        }
      }
    }
  }
  attr {
    key: "data_format"
    value {
      s: "NHWC"
    }
  }
  attr {
    key: "dilations"
    value {
      list {
        i: 1
        i: 1
        i: 1
        i: 1
      }
    }
  }
  attr {
    key: "padding"
    value {
      s: "SAME"
    }
  }
  attr {
    key: "strides"
    value {
      list {
        i: 1
        i: 1
        i: 1
        i: 1
      }
    }
  }
  attr {
    key: "use_cudnn_on_gpu"
    value {
      b: true
    }
  }
}
node {
  name: "batch_normalization_1/gamma/Initializer/ones/shape_as_tensor"
  op: "Const"
  attr {
    key: "_class"
    value {
      list {
        s: "loc:@batch_normalization_1/gamma"
      }
    }
  }
  attr {
    key: "_output_shapes"
    value {
      list {
        shape {
          dim {
            size: 1
          }
        }
      }
    }
  }
  attr {
    key: "dtype"
    value {
      type: DT_INT32
    }
  }
  attr {
    key: "value"
    value {
      tensor {
        dtype: DT_INT32
        tensor_shape {
          dim {
            size: 1
          }
        }
        int_val: 64
      }
    }
  }
}
node {
  name: "batch_normalization_1/gamma/Initializer/ones/Const"
  op: "Const"
  attr {
    key: "_class"
    value {
      list {
        s: "loc:@batch_normalization_1/gamma"
      }
    }
  }
  attr {
    key: "_output_shapes"
    value {
      list {
        shape {
        }
      }
    }
  }
  attr {
    key: "dtype"
    value {
      type: DT_FLOAT
    }
  }
  attr {
    key: "value"
    value {
      tensor {
        dtype: DT_FLOAT
        tensor_shape {
        }
        float_val: 1.0
      }
    }
  }
}
node {
  name: "batch_normalization_1/gamma/Initializer/ones"
  op: "Fill"
  input: "batch_normalization_1/gamma/Initializer/ones/shape_as_tensor"
  input: "batch_normalization_1/gamma/Initializer/ones/Const"
  attr {
    key: "T"
    value {
      type: DT_FLOAT
    }
  }
  attr {
    key: "_class"
    value {
      list {
        s: "loc:@batch_normalization_1/gamma"
      }
    }
  }
  attr {
    key: "_output_shapes"
    value {
      list {
        shape {
          dim {
            size: 64
          }
        }
      }
    }
  }
  attr {
    key: "index_type"
    value {
      type: DT_INT32
    }
  }
}
node {
  name: "batch_normalization_1/gamma"
  op: "VariableV2"
  attr {
    key: "_class"
    value {
      list {
        s: "loc:@batch_normalization_1/gamma"
      }
    }
  }
  attr {
    key: "_output_shapes"
    value {
      list {
        shape {
          dim {
            size: 64
          }
        }
      }
    }
  }
  attr {
    key: "container"
    value {
      s: ""
    }
  }
  attr {
    key: "dtype"
    value {
      type: DT_FLOAT
    }
  }
  attr {
    key: "shape"
    value {
      shape {
        dim {
          size: 64
        }
      }
    }
  }
  attr {
    key: "shared_name"
    value {
      s: ""
    }
  }
}
node {
  name: "batch_normalization_1/gamma/Assign"
  op: "Assign"
  input: "batch_normalization_1/gamma"
  input: "batch_normalization_1/gamma/Initializer/ones"
  attr {
    key: "T"
    value {
      type: DT_FLOAT
    }
  }
  attr {
    key: "_class"
    value {
      list {
        s: "loc:@batch_normalization_1/gamma"
      }
    }
  }
  attr {
    key: "_output_shapes"
    value {
      list {
        shape {
          dim {
            size: 64
          }
        }
      }
    }
  }
  attr {
    key: "use_locking"
    value {
      b: true
    }
  }
  attr {
    key: "validate_shape"
    value {
      b: true
    }
  }
}
node {
  name: "batch_normalization_1/gamma/read"
  op: "Identity"
  input: "batch_normalization_1/gamma"
  attr {
    key: "T"
    value {
      type: DT_FLOAT
    }
  }
  attr {
    key: "_class"
    value {
      list {
        s: "loc:@batch_normalization_1/gamma"
      }
    }
  }
  attr {
    key: "_output_shapes"
    value {
      list {
        shape {
          dim {
            size: 64
          }
        }
      }
    }
  }
}
node {
  name: "batch_normalization_1/beta/Initializer/zeros/shape_as_tensor"
  op: "Const"
  attr {
    key: "_class"
    value {
      list {
        s: "loc:@batch_normalization_1/beta"
      }
    }
  }
  attr {
    key: "_output_shapes"
    value {
      list {
        shape {
          dim {
            size: 1
          }
        }
      }
    }
  }
  attr {
    key: "dtype"
    value {
      type: DT_INT32
    }
  }
  attr {
    key: "value"
    value {
      tensor {
        dtype: DT_INT32
        tensor_shape {
          dim {
            size: 1
          }
        }
        int_val: 64
      }
    }
  }
}
node {
  name: "batch_normalization_1/beta/Initializer/zeros/Const"
  op: "Const"
  attr {
    key: "_class"
    value {
      list {
        s: "loc:@batch_normalization_1/beta"
      }
    }
  }
  attr {
    key: "_output_shapes"
    value {
      list {
        shape {
        }
      }
    }
  }
  attr {
    key: "dtype"
    value {
      type: DT_FLOAT
    }
  }
  attr {
    key: "value"
    value {
      tensor {
        dtype: DT_FLOAT
        tensor_shape {
        }
        float_val: 0.0
      }
    }
  }
}
node {
  name: "batch_normalization_1/beta/Initializer/zeros"
  op: "Fill"
  input: "batch_normalization_1/beta/Initializer/zeros/shape_as_tensor"
  input: "batch_normalization_1/beta/Initializer/zeros/Const"
  attr {
    key: "T"
    value {
      type: DT_FLOAT
    }
  }
  attr {
    key: "_class"
    value {
      list {
        s: "loc:@batch_normalization_1/beta"
      }
    }
  }
  attr {
    key: "_output_shapes"
    value {
      list {
        shape {
          dim {
            size: 64
          }
        }
      }
    }
  }
  attr {
    key: "index_type"
    value {
      type: DT_INT32
    }
  }
}
node {
  name: "batch_normalization_1/beta"
  op: "VariableV2"
  attr {
    key: "_class"
    value {
      list {
        s: "loc:@batch_normalization_1/beta"
      }
    }
  }
  attr {
    key: "_output_shapes"
    value {
      list {
        shape {
          dim {
            size: 64
          }
        }
      }
    }
  }
  attr {
    key: "container"
    value {
      s: ""
    }
  }
  attr {
    key: "dtype"
    value {
      type: DT_FLOAT
    }
  }
  attr {
    key: "shape"
    value {
      shape {
        dim {
          size: 64
        }
      }
    }
  }
  attr {
    key: "shared_name"
    value {
      s: ""
    }
  }
}
node {
  name: "batch_normalization_1/beta/Assign"
  op: "Assign"
  input: "batch_normalization_1/beta"
  input: "batch_normalization_1/beta/Initializer/zeros"
  attr {
    key: "T"
    value {
      type: DT_FLOAT
    }
  }
  attr {
    key: "_class"
    value {
      list {
        s: "loc:@batch_normalization_1/beta"
      }
    }
  }
  attr {
    key: "_output_shapes"
    value {
      list {
        shape {
          dim {
            size: 64
          }
        }
      }
    }
  }
  attr {
    key: "use_locking"
    value {
      b: true
    }
  }
  attr {
    key: "validate_shape"
    value {
      b: true
    }
  }
}
node {
  name: "batch_normalization_1/beta/read"
  op: "Identity"
  input: "batch_normalization_1/beta"
  attr {
    key: "T"
    value {
      type: DT_FLOAT
    }
  }
  attr {
    key: "_class"
    value {
      list {
        s: "loc:@batch_normalization_1/beta"
      }
    }
  }
  attr {
    key: "_output_shapes"
    value {
      list {
        shape {
          dim {
            size: 64
          }
        }
      }
    }
  }
}
node {
  name: "batch_normalization_1/moving_mean/Initializer/zeros/shape_as_tensor"
  op: "Const"
  attr {
    key: "_class"
    value {
      list {
        s: "loc:@batch_normalization_1/moving_mean"
      }
    }
  }
  attr {
    key: "_output_shapes"
    value {
      list {
        shape {
          dim {
            size: 1
          }
        }
      }
    }
  }
  attr {
    key: "dtype"
    value {
      type: DT_INT32
    }
  }
…
      list {
        s: "loc:@conv2d_7/kernel"
      }
    }
  }
  attr {
    key: "_output_shapes"
    value {
      list {
        shape {
          dim {
            size: 3
          }
          dim {
            size: 3
          }
          dim {
            size: 64
          }
          dim {
            size: 64
          }
        }
      }
    }
  }
  attr {
    key: "use_locking"
    value {
      b: true
    }
  }
  attr {
    key: "validate_shape"
    value {
      b: true
    }
  }
}
node {
  name: "save/Assign_291"
  op: "Assign"
  input: "conv2d_7/kernel/Momentum"
  input: "save/RestoreV2:291"
  attr {
    key: "T"
    value {
      type: DT_FLOAT
    }
  }
  attr {
    key: "_class"
    value {
      list {
        s: "loc:@conv2d_7/kernel"
      }
    }
  }
  attr {
    key: "_output_shapes"
    value {
      list {
        shape {
          dim {
            size: 3
          }
          dim {
            size: 3
          }
          dim {
            size: 64
          }
          dim {
            size: 64
          }
        }
      }
    }
  }
  attr {
    key: "use_locking"
    value {
      b: true
    }
  }
  attr {
    key: "validate_shape"
    value {
      b: true
    }
  }
}
node {
  name: "save/Assign_292"
  op: "Assign"
  input: "conv2d_8/kernel"
  input: "save/RestoreV2:292"
  attr {
    key: "T"
    value {
      type: DT_FLOAT
    }
  }
  attr {
    key: "_class"
    value {
      list {
        s: "loc:@conv2d_8/kernel"
      }
    }
  }
  attr {
    key: "_output_shapes"
    value {
      list {
        shape {
          dim {
            size: 1
          }
          dim {
            size: 1
          }
          dim {
            size: 64
          }
          dim {
            size: 128
          }
        }
      }
    }
  }
  attr {
    key: "use_locking"
    value {
      b: true
    }
  }
  attr {
    key: "validate_shape"
    value {
      b: true
    }
  }
}
node {
  name: "save/Assign_293"
  op: "Assign"
  input: "conv2d_8/kernel/Momentum"
  input: "save/RestoreV2:293"
  attr {
    key: "T"
    value {
      type: DT_FLOAT
    }
  }
  attr {
    key: "_class"
    value {
      list {
        s: "loc:@conv2d_8/kernel"
      }
    }
  }
  attr {
    key: "_output_shapes"
    value {
      list {
        shape {
          dim {
            size: 1
          }
          dim {
            size: 1
          }
          dim {
            size: 64
          }
          dim {
            size: 128
          }
        }
      }
    }
  }
  attr {
    key: "use_locking"
    value {
      b: true
    }
  }
  attr {
    key: "validate_shape"
    value {
      b: true
    }
  }
}
node {
  name: "save/Assign_294"
  op: "Assign"
  input: "conv2d_9/kernel"
  input: "save/RestoreV2:294"
  attr {
    key: "T"
    value {
      type: DT_FLOAT
    }
  }
  attr {
    key: "_class"
    value {
      list {
        s: "loc:@conv2d_9/kernel"
      }
    }
  }
  attr {
    key: "_output_shapes"
    value {
      list {
        shape {
          dim {
            size: 3
          }
          dim {
            size: 3
          }
          dim {
            size: 64
          }
          dim {
            size: 128
          }
        }
      }
    }
  }
  attr {
    key: "use_locking"
    value {
      b: true
    }
  }
  attr {
    key: "validate_shape"
    value {
      b: true
    }
  }
}
node {
  name: "save/Assign_295"
  op: "Assign"
  input: "conv2d_9/kernel/Momentum"
  input: "save/RestoreV2:295"
  attr {
    key: "T"
    value {
      type: DT_FLOAT
    }
  }
  attr {
    key: "_class"
    value {
      list {
        s: "loc:@conv2d_9/kernel"
      }
    }
  }
  attr {
    key: "_output_shapes"
    value {
      list {
        shape {
          dim {
            size: 3
          }
          dim {
            size: 3
          }
          dim {
            size: 64
          }
          dim {
            size: 128
          }
        }
      }
    }
  }
  attr {
    key: "use_locking"
    value {
      b: true
    }
  }
  attr {
    key: "validate_shape"
    value {
      b: true
    }
  }
}
node {
  name: "save/Assign_296"
  op: "Assign"
  input: "dense/bias"
  input: "save/RestoreV2:296"
  attr {
    key: "T"
    value {
      type: DT_FLOAT
    }
  }
  attr {
    key: "_class"
    value {
      list {
        s: "loc:@dense/bias"
      }
    }
  }
  attr {
    key: "_output_shapes"
    value {
      list {
        shape {
          dim {
            size: 1001
          }
        }
      }
    }
  }
  attr {
    key: "use_locking"
    value {
      b: true
    }
  }
  attr {
    key: "validate_shape"
    value {
      b: true
    }
  }
}
node {
  name: "save/Assign_297"
  op: "Assign"
  input: "dense/bias/Momentum"
  input: "save/RestoreV2:297"
  attr {
    key: "T"
    value {
      type: DT_FLOAT
    }
  }
  attr {
    key: "_class"
    value {
      list {
        s: "loc:@dense/bias"
      }
    }
  }
  attr {
    key: "_output_shapes"
    value {
      list {
        shape {
          dim {
            size: 1001
          }
        }
      }
    }
  }
  attr {
    key: "use_locking"
    value {
      b: true
    }
  }
  attr {
    key: "validate_shape"
    value {
      b: true
    }
  }
}
node {
  name: "save/Assign_298"
  op: "Assign"
  input: "dense/kernel"
  input: "save/RestoreV2:298"
  attr {
    key: "T"
    value {
      type: DT_FLOAT
    }
  }
  attr {
    key: "_class"
    value {
      list {
        s: "loc:@dense/kernel"
      }
    }
  }
  attr {
    key: "_output_shapes"
    value {
      list {
        shape {
          dim {
            size: 512
          }
          dim {
            size: 1001
          }
        }
      }
    }
  }
  attr {
    key: "use_locking"
    value {
      b: true
    }
  }
  attr {
    key: "validate_shape"
    value {
      b: true
    }
  }
}
node {
  name: "save/Assign_299"
  op: "Assign"
  input: "dense/kernel/Momentum"
  input: "save/RestoreV2:299"
  attr {
    key: "T"
    value {
      type: DT_FLOAT
    }
  }
  attr {
    key: "_class"
    value {
      list {
        s: "loc:@dense/kernel"
      }
    }
  }
  attr {
    key: "_output_shapes"
    value {
      list {
        shape {
          dim {
            size: 512
          }
          dim {
            size: 1001
          }
        }
      }
    }
  }
  attr {
    key: "use_locking"
    value {
      b: true
    }
  }
  attr {
    key: "validate_shape"
    value {
      b: true
    }
  }
}
node {
  name: "save/Assign_300"
  op: "Assign"
  input: "global_step"
  input: "save/RestoreV2:300"
  attr {
    key: "T"
    value {
      type: DT_INT64
    }
  }
  attr {
    key: "_class"
    value {
      list {
        s: "loc:@global_step"
      }
    }
  }
  attr {
    key: "_output_shapes"
    value {
      list {
        shape {
        }
      }
    }
  }
  attr {
    key: "use_locking"
    value {
      b: true
    }
  }
  attr {
    key: "validate_shape"
    value {
      b: true
    }
  }
}
node {
  name: "save/restore_shard"
  op: "NoOp"
  input: "^save/Assign"
  input: "^save/Assign_1"
  input: "^save/Assign_2"
  input: "^save/Assign_3"
  input: "^save/Assign_4"
  input: "^save/Assign_5"
  input: "^save/Assign_6"
  input: "^save/Assign_7"
  input: "^save/Assign_8"
  input: "^save/Assign_9"
  input: "^save/Assign_10"
  input: "^save/Assign_11"
  input: "^save/Assign_12"
  input: "^save/Assign_13"
  input: "^save/Assign_14"
  input: "^save/Assign_15"
  input: "^save/Assign_16"
  input: "^save/Assign_17"
  input: "^save/Assign_18"
  input: "^save/Assign_19"
  input: "^save/Assign_20"
  input: "^save/Assign_21"
  input: "^save/Assign_22"
  input: "^save/Assign_23"
  input: "^save/Assign_24"
  input: "^save/Assign_25"
  input: "^save/Assign_26"
  input: "^save/Assign_27"
  input: "^save/Assign_28"
  input: "^save/Assign_29"
  input: "^save/Assign_30"
  input: "^save/Assign_31"
  input: "^save/Assign_32"
  input: "^save/Assign_33"
  input: "^save/Assign_34"
  input: "^save/Assign_35"
  input: "^save/Assign_36"
  input: "^save/Assign_37"
  input: "^save/Assign_38"
  input: "^save/Assign_39"
  input: "^save/Assign_40"
  input: "^save/Assign_41"
  input: "^save/Assign_42"
  input: "^save/Assign_43"
  input: "^save/Assign_44"
  input: "^save/Assign_45"
  input: "^save/Assign_46"
  input: "^save/Assign_47"
  input: "^save/Assign_48"
  input: "^save/Assign_49"
  input: "^save/Assign_50"
  input: "^save/Assign_51"
  input: "^save/Assign_52"
  input: "^save/Assign_53"
  input: "^save/Assign_54"
  input: "^save/Assign_55"
  input: "^save/Assign_56"
  input: "^save/Assign_57"
  input: "^save/Assign_58"
  input: "^save/Assign_59"
  input: "^save/Assign_60"
  input: "^save/Assign_61"
  input: "^save/Assign_62"
  input: "^save/Assign_63"
  input: "^save/Assign_64"
  input: "^save/Assign_65"
  input: "^save/Assign_66"
  input: "^save/Assign_67"
  input: "^save/Assign_68"
  input: "^save/Assign_69"
  input: "^save/Assign_70"
  input: "^save/Assign_71"
  input: "^save/Assign_72"
  input: "^save/Assign_73"
  input: "^save/Assign_74"
  input: "^save/Assign_75"
  input: "^save/Assign_76"
  input: "^save/Assign_77"
  input: "^save/Assign_78"
  input: "^save/Assign_79"
  input: "^save/Assign_80"
  input: "^save/Assign_81"
  input: "^save/Assign_82"
  input: "^save/Assign_83"
  input: "^save/Assign_84"
  input: "^save/Assign_85"
  input: "^save/Assign_86"
  input: "^save/Assign_87"
  input: "^save/Assign_88"
  input: "^save/Assign_89"
  input: "^save/Assign_90"
  input: "^save/Assign_91"
  input: "^save/Assign_92"
  input: "^save/Assign_93"
  input: "^save/Assign_94"
  input: "^save/Assign_95"
  input: "^save/Assign_96"
  input: "^save/Assign_97"
  input: "^save/Assign_98"
  input: "^save/Assign_99"
  input: "^save/Assign_100"
  input: "^save/Assign_101"
  input: "^save/Assign_102"
  input: "^save/Assign_103"
  input: "^save/Assign_104"
  input: "^save/Assign_105"
  input: "^save/Assign_106"
  input: "^save/Assign_107"
  input: "^save/Assign_108"
  input: "^save/Assign_109"
  input: "^save/Assign_110"
  input: "^save/Assign_111"
  input: "^save/Assign_112"
  input: "^save/Assign_113"
  input: "^save/Assign_114"
  input: "^save/Assign_115"
  input: "^save/Assign_116"
  input: "^save/Assign_117"
  input: "^save/Assign_118"
  input: "^save/Assign_119"
  input: "^save/Assign_120"
  input: "^save/Assign_121"
  input: "^save/Assign_122"
  input: "^save/Assign_123"
  input: "^save/Assign_124"
  input: "^save/Assign_125"
  input: "^save/Assign_126"
  input: "^save/Assign_127"
  input: "^save/Assign_128"
  input: "^save/Assign_129"
  input: "^save/Assign_130"
  input: "^save/Assign_131"
  input: "^save/Assign_132"
  input: "^save/Assign_133"
  input: "^save/Assign_134"
  input: "^save/Assign_135"
  input: "^save/Assign_136"
  input: "^save/Assign_137"
  input: "^save/Assign_138"
  input: "^save/Assign_139"
  input: "^save/Assign_140"
  input: "^save/Assign_141"
  input: "^save/Assign_142"
  input: "^save/Assign_143"
  input: "^save/Assign_144"
  input: "^save/Assign_145"
  input: "^save/Assign_146"
  input: "^save/Assign_147"
  input: "^save/Assign_148"
  input: "^save/Assign_149"
  input: "^save/Assign_150"
  input: "^save/Assign_151"
  input: "^save/Assign_152"
  input: "^save/Assign_153"
  input: "^save/Assign_154"
  input: "^save/Assign_155"
  input: "^save/Assign_156"
  input: "^save/Assign_157"
  input: "^save/Assign_158"
  input: "^save/Assign_159"
  input: "^save/Assign_160"
  input: "^save/Assign_161"
  input: "^save/Assign_162"
  input: "^save/Assign_163"
  input: "^save/Assign_164"
  input: "^save/Assign_165"
  input: "^save/Assign_166"
  input: "^save/Assign_167"
  input: "^save/Assign_168"
  input: "^save/Assign_169"
  input: "^save/Assign_170"
  input: "^save/Assign_171"
  input: "^save/Assign_172"
  input: "^save/Assign_173"
  input: "^save/Assign_174"
  input: "^save/Assign_175"
  input: "^save/Assign_176"
  input: "^save/Assign_177"
  input: "^save/Assign_178"
  input: "^save/Assign_179"
  input: "^save/Assign_180"
  input: "^save/Assign_181"
  input: "^save/Assign_182"
  input: "^save/Assign_183"
  input: "^save/Assign_184"
  input: "^save/Assign_185"
  input: "^save/Assign_186"
  input: "^save/Assign_187"
  input: "^save/Assign_188"
  input: "^save/Assign_189"
  input: "^save/Assign_190"
  input: "^save/Assign_191"
  input: "^save/Assign_192"
  input: "^save/Assign_193"
  input: "^save/Assign_194"
  input: "^save/Assign_195"
  input: "^save/Assign_196"
  input: "^save/Assign_197"
  input: "^save/Assign_198"
  input: "^save/Assign_199"
  input: "^save/Assign_200"
  input: "^save/Assign_201"
  input: "^save/Assign_202"
  input: "^save/Assign_203"
  input: "^save/Assign_204"
  input: "^save/Assign_205"
  input: "^save/Assign_206"
  input: "^save/Assign_207"
  input: "^save/Assign_208"
  input: "^save/Assign_209"
  input: "^save/Assign_210"
  input: "^save/Assign_211"
  input: "^save/Assign_212"
  input: "^save/Assign_213"
  input: "^save/Assign_214"
  input: "^save/Assign_215"
  input: "^save/Assign_216"
  input: "^save/Assign_217"
  input: "^save/Assign_218"
  input: "^save/Assign_219"
  input: "^save/Assign_220"
  input: "^save/Assign_221"
  input: "^save/Assign_222"
  input: "^save/Assign_223"
  input: "^save/Assign_224"
  input: "^save/Assign_225"
  input: "^save/Assign_226"
  input: "^save/Assign_227"
  input: "^save/Assign_228"
  input: "^save/Assign_229"
  input: "^save/Assign_230"
  input: "^save/Assign_231"
  input: "^save/Assign_232"
  input: "^save/Assign_233"
  input: "^save/Assign_234"
  input: "^save/Assign_235"
  input: "^save/Assign_236"
  input: "^save/Assign_237"
  input: "^save/Assign_238"
  input: "^save/Assign_239"
  input: "^save/Assign_240"
  input: "^save/Assign_241"
  input: "^save/Assign_242"
  input: "^save/Assign_243"
  input: "^save/Assign_244"
  input: "^save/Assign_245"
  input: "^save/Assign_246"
  input: "^save/Assign_247"
  input: "^save/Assign_248"
  input: "^save/Assign_249"
  input: "^save/Assign_250"
  input: "^save/Assign_251"
  input: "^save/Assign_252"
  input: "^save/Assign_253"
  input: "^save/Assign_254"
  input: "^save/Assign_255"
  input: "^save/Assign_256"
  input: "^save/Assign_257"
  input: "^save/Assign_258"
  input: "^save/Assign_259"
  input: "^save/Assign_260"
  input: "^save/Assign_261"
  input: "^save/Assign_262"
  input: "^save/Assign_263"
  input: "^save/Assign_264"
  input: "^save/Assign_265"
  input: "^save/Assign_266"
  input: "^save/Assign_267"
  input: "^save/Assign_268"
  input: "^save/Assign_269"
  input: "^save/Assign_270"
  input: "^save/Assign_271"
  input: "^save/Assign_272"
  input: "^save/Assign_273"
  input: "^save/Assign_274"
  input: "^save/Assign_275"
  input: "^save/Assign_276"
  input: "^save/Assign_277"
  input: "^save/Assign_278"
  input: "^save/Assign_279"
  input: "^save/Assign_280"
  input: "^save/Assign_281"
  input: "^save/Assign_282"
  input: "^save/Assign_283"
  input: "^save/Assign_284"
  input: "^save/Assign_285"
  input: "^save/Assign_286"
  input: "^save/Assign_287"
  input: "^save/Assign_288"
  input: "^save/Assign_289"
  input: "^save/Assign_290"
  input: "^save/Assign_291"
  input: "^save/Assign_292"
  input: "^save/Assign_293"
  input: "^save/Assign_294"
  input: "^save/Assign_295"
  input: "^save/Assign_296"
  input: "^save/Assign_297"
  input: "^save/Assign_298"
  input: "^save/Assign_299"
  input: "^save/Assign_300"
}
node {
  name: "save/restore_all"
  op: "NoOp"
  input: "^save/restore_shard"
}
library {
  function {
    signature {
      name: "tf_map_func_1e0b8606"
      input_arg {
        name: "arg0"
        type: DT_STRING
      }
      output_arg {
        name: "FlatMapDataset"
        type: DT_VARIANT
      }
      description: "A wrapper for Defun that facilitates shape inference."
      is_stateful: true
    }
    node_def {
      name: "flat_filenames/shape"
      op: "Const"
      attr {
        key: "dtype"
        value {
          type: DT_INT32
        }
      }
      attr {
        key: "value"
        value {
          tensor {
            dtype: DT_INT32
            tensor_shape {
              dim {
                size: 1
              }
            }
            int_val: -1
          }
        }
      }
    }
    node_def {
      name: "flat_filenames"
      op: "Reshape"
      input: "arg0"
      input: "flat_filenames/shape:output:0"
      attr {
        key: "T"
        value {
          type: DT_STRING
        }
      }
      attr {
        key: "Tshape"
        value {
          type: DT_INT32
        }
      }
    }
    node_def {
      name: "TensorSliceDataset"
      op: "TensorSliceDataset"
      input: "flat_filenames:output:0"
      attr {
        key: "Toutput_types"
        value {
          list {
            type: DT_STRING
          }
        }
      }
      attr {
        key: "output_shapes"
        value {
          list {
            shape {
            }
          }
        }
      }
    }
    node_def {
      name: "FlatMapDataset"
      op: "FlatMapDataset"
      input: "TensorSliceDataset:handle:0"
      attr {
        key: "Targuments"
        value {
          list {
          }
        }
      }
      attr {
        key: "f"
        value {
          func {
            name: "tf_map_func_65c9496a"
          }
        }
      }
      attr {
        key: "output_shapes"
        value {
          list {
            shape {
            }
          }
        }
      }
      attr {
        key: "output_types"
        value {
          list {
            type: DT_STRING
          }
        }
      }
    }
    ret {
      key: "FlatMapDataset"
      value: "FlatMapDataset:handle:0"
    }
  }
  function {
    signature {
      name: "tf_map_func_65c9496a"
      input_arg {
        name: "arg0"
        type: DT_STRING
      }
      output_arg {
        name: "TFRecordDataset"
        type: DT_VARIANT
      }
      description: "A wrapper for Defun that facilitates shape inference."
      is_stateful: true
    }
    node_def {
      name: "compression_type"
      op: "Const"
      attr {
        key: "dtype"
        value {
          type: DT_STRING
        }
      }
      attr {
        key: "value"
        value {
          tensor {
            dtype: DT_STRING
            tensor_shape {
            }
            string_val: ""
          }
        }
      }
    }
    node_def {
      name: "buffer_size"
      op: "Const"
      attr {
        key: "dtype"
        value {
          type: DT_INT64
        }
      }
      attr {
        key: "value"
        value {
          tensor {
            dtype: DT_INT64
            tensor_shape {
            }
            int64_val: 262144
          }
        }
      }
    }
    node_def {
      name: "TFRecordDataset"
      op: "TFRecordDataset"
      input: "arg0"
      input: "compression_type:output:0"
      input: "buffer_size:output:0"
    }
    ret {
      key: "TFRecordDataset"
      value: "TFRecordDataset:handle:0"
    }
  }
  function {
    signature {
      name: "tf_map_func_3856ed50"
      input_arg {
        name: "arg0"
        type: DT_STRING
      }
      output_arg {
        name: "sub"
        type: DT_FLOAT
      }
      output_arg {
        name: "one_hot"
        type: DT_FLOAT
      }
      description: "A wrapper for Defun that facilitates shape inference."
      is_stateful: true
    }
    node_def {
      name: "ParseSingleExample/key_image/class/label"
      op: "Const"
      attr {
        key: "dtype"
        value {
          type: DT_INT64
        }
      }
      attr {
        key: "value"
        value {
          tensor {
            dtype: DT_INT64
            tensor_shape {
            }
            int64_val: -1
          }
        }
      }
    }
    node_def {
      name: "ParseSingleExample/Reshape/shape"
      op: "Const"
      attr {
        key: "dtype"
        value {
          type: DT_INT32
        }
      }
      attr {
        key: "value"
        value {
          tensor {
            dtype: DT_INT32
            tensor_shape {
              dim {
                size: 1
              }
            }
            int_val: 1
          }
        }
      }
    }
    node_def {
      name: "ParseSingleExample/Reshape"
      op: "Reshape"
      input: "ParseSingleExample/key_image/class/label:output:0"
      input: "ParseSingleExample/Reshape/shape:output:0"
      attr {
        key: "T"
        value {
          type: DT_INT64
        }
      }
      attr {
        key: "Tshape"
        value {
          type: DT_INT32
        }
      }
    }
    node_def {
      name: "ParseSingleExample/key_image/class/text"
      op: "Const"
      attr {
        key: "dtype"
        value {
          type: DT_STRING
        }
      }
      attr {
        key: "value"
        value {
          tensor {
            dtype: DT_STRING
            tensor_shape {
            }
            string_val: ""
          }
        }
      }
    }
    node_def {
      name: "ParseSingleExample/Reshape_1/shape"
      op: "Const"
      attr {
        key: "dtype"
        value {
          type: DT_INT32
        }
      }
      attr {
        key: "value"
        value {
          tensor {
            dtype: DT_INT32
            tensor_shape {
              dim {
              }
            }
          }
        }
      }
    }
    node_def {
      name: "ParseSingleExample/Reshape_1"
      op: "Reshape"
      input: "ParseSingleExample/key_image/class/text:output:0"
      input: "ParseSingleExample/Reshape_1/shape:output:0"
      attr {
        key: "T"
        value {
          type: DT_STRING
        }
      }
      attr {
        key: "Tshape"
        value {
          type: DT_INT32
        }
      }
    }
    node_def {
      name: "ParseSingleExample/key_image/encoded"
      op: "Const"
      attr {
        key: "dtype"
        value {
          type: DT_STRING
        }
      }
      attr {
        key: "value"
        value {
          tensor {
            dtype: DT_STRING
            tensor_shape {
            }
            string_val: ""
          }
        }
      }
    }
    node_def {
      name: "ParseSingleExample/Reshape_2/shape"
      op: "Const"
      attr {
        key: "dtype"
        value {
          type: DT_INT32
        }
      }
      attr {
        key: "value"
        value {
          tensor {
            dtype: DT_INT32
            tensor_shape {
              dim {
              }
            }
          }
        }
      }
    }
    node_def {
      name: "ParseSingleExample/Reshape_2"
      op: "Reshape"
      input: "ParseSingleExample/key_image/encoded:output:0"
      input: "ParseSingleExample/Reshape_2/shape:output:0"
      attr {
        key: "T"
        value {
          type: DT_STRING
        }
      }
      attr {
        key: "Tshape"
        value {
          type: DT_INT32
        }
      }
    }
    node_def {
      name: "ParseSingleExample/ParseSingleExample"
      op: "ParseSingleExample"
      input: "arg0"
      input: "ParseSingleExample/Reshape:output:0"
      input: "ParseSingleExample/Reshape_1:output:0"
      input: "ParseSingleExample/Reshape_2:output:0"
      attr {
        key: "Tdense"
        value {
          list {
            type: DT_INT64
            type: DT_STRING
            type: DT_STRING
          }
        }
      }
      attr {
        key: "dense_keys"
        value {
          list {
            s: "image/class/label"
            s: "image/class/text"
            s: "image/encoded"
          }
        }
      }
      attr {
        key: "dense_shapes"
        value {
          list {
            shape {
              dim {
                size: 1
              }
            }
            shape {
            }
            shape {
            }
          }
        }
      }
      attr {
        key: "num_sparse"
        value {
          i: 4
        }
      }
      attr {
        key: "sparse_keys"
        value {
          list {
            s: "image/object/bbox/xmax"
            s: "image/object/bbox/xmin"
            s: "image/object/bbox/ymax"
            s: "image/object/bbox/ymin"
          }
        }
      }
      attr {
        key: "sparse_types"
        value {
          list {
            type: DT_FLOAT
            type: DT_FLOAT
            type: DT_FLOAT
            type: DT_FLOAT
          }
        }
      }
    }
    node_def {
      name: "Cast"
      op: "Cast"
      input: "ParseSingleExample/ParseSingleExample:dense_values:0"
      attr {
        key: "DstT"
        value {
          type: DT_INT32
        }
      }
      attr {
        key: "SrcT"
        value {
          type: DT_INT64
        }
      }
    }
    node_def {
      name: "ExpandDims/dim"
      op: "Const"
      attr {
        key: "dtype"
        value {
          type: DT_INT32
        }
      }
      attr {
        key: "value"
        value {
          tensor {
            dtype: DT_INT32
            tensor_shape {
            }
            int_val: 0
          }
        }
      }
    }
    node_def {
      name: "ExpandDims"
      op: "ExpandDims"
      input: "ParseSingleExample/ParseSingleExample:sparse_values:1"
      input: "ExpandDims/dim:output:0"
      attr {
        key: "T"
        value {
          type: DT_FLOAT
        }
      }
      attr {
        key: "Tdim"
        value {
          type: DT_INT32
        }
      }
    }
    node_def {
      name: "ExpandDims_1/dim"
      op: "Const"
      attr {
        key: "dtype"
        value {
          type: DT_INT32
        }
      }
      attr {
        key: "value"
        value {
          tensor {
            dtype: DT_INT32
            tensor_shape {
            }
            int_val: 0
          }
        }
      }
    }
    node_def {
      name: "ExpandDims_1"
      op: "ExpandDims"
      input: "ParseSingleExample/ParseSingleExample:sparse_values:3"
      input: "ExpandDims_1/dim:output:0"
      attr {
        key: "T"
        value {
          type: DT_FLOAT
        }
      }
      attr {
        key: "Tdim"
        value {
          type: DT_INT32
        }
      }
    }
    node_def {
      name: "ExpandDims_2/dim"
      op: "Const"
      attr {
        key: "dtype"
        value {
          type: DT_INT32
        }
      }
      attr {
        key: "value"
        value {
          tensor {
            dtype: DT_INT32
            tensor_shape {
            }
            int_val: 0
          }
        }
      }
    }
    node_def {
      name: "ExpandDims_2"
      op: "ExpandDims"
      input: "ParseSingleExample/ParseSingleExample:sparse_values:0"
      input: "ExpandDims_2/dim:output:0"
      attr {
        key: "T"
        value {
          type: DT_FLOAT
        }
      }
      attr {
        key: "Tdim"
        value {
          type: DT_INT32
        }
      }
    }
    node_def {
      name: "ExpandDims_3/dim"
      op: "Const"
      attr {
        key: "dtype"
        value {
          type: DT_INT32
        }
      }
      attr {
        key: "value"
        value {
          tensor {
            dtype: DT_INT32
            tensor_shape {
            }
            int_val: 0
          }
        }
      }
    }
    node_def {
      name: "ExpandDims_3"
      op: "ExpandDims"
      input: "ParseSingleExample/ParseSingleExample:sparse_values:2"
      input: "ExpandDims_3/dim:output:0"
      attr {
        key: "T"
        value {
          type: DT_FLOAT
        }
      }
      attr {
        key: "Tdim"
        value {
          type: DT_INT32
        }
      }
    }
    node_def {
      name: "concat/axis"
      op: "Const"
      attr {
        key: "dtype"
        value {
          type: DT_INT32
        }
      }
      attr {
        key: "value"
        value {
          tensor {
            dtype: DT_INT32
            tensor_shape {
            }
            int_val: 0
          }
        }
      }
    }
    node_def {
      name: "concat"
      op: "ConcatV2"
      input: "ExpandDims_1:output:0"
      input: "ExpandDims:output:0"
      input: "ExpandDims_3:output:0"
      input: "ExpandDims_2:output:0"
      input: "concat/axis:output:0"
      attr {
        key: "N"
        value {
          i: 4
        }
      }
      attr {
        key: "T"
        value {
          type: DT_FLOAT
        }
      }
      attr {
        key: "Tidx"
        value {
          type: DT_INT32
        }
      }
    }
    node_def {
      name: "ExpandDims_4/dim"
      op: "Const"
      attr {
        key: "dtype"
        value {
          type: DT_INT32
        }
      }
      attr {
        key: "value"
        value {
          tensor {
            dtype: DT_INT32
            tensor_shape {
            }
            int_val: 0
          }
        }
      }
    }
    node_def {
      name: "ExpandDims_4"
      op: "ExpandDims"
      input: "concat:output:0"
      input: "ExpandDims_4/dim:output:0"
      attr {
        key: "T"
        value {
          type: DT_FLOAT
        }
      }
      attr {
        key: "Tdim"
        value {
          type: DT_INT32
        }
      }
    }
    node_def {
      name: "transpose/perm"
      op: "Const"
      attr {
        key: "dtype"
        value {
          type: DT_INT32
        }
      }
      attr {
        key: "value"
        value {
          tensor {
            dtype: DT_INT32
            tensor_shape {
              dim {
                size: 3
              }
            }
            tensor_content: "\000\000\000\000\002\000\000\000\001\000\000\000"
          }
        }
      }
    }
    node_def {
      name: "transpose"
      op: "Transpose"
      input: "ExpandDims_4:output:0"
      input: "transpose/perm:output:0"
      attr {
        key: "T"
        value {
          type: DT_FLOAT
        }
      }
      attr {
        key: "Tperm"
        value {
          type: DT_INT32
        }
      }
    }
    node_def {
      name: "ExtractJpegShape"
      op: "ExtractJpegShape"
      input: "ParseSingleExample/ParseSingleExample:dense_values:2"
      attr {
        key: "output_type"
        value {
          type: DT_INT32
        }
      }
    }
    node_def {
      name: "sample_distorted_bounding_box/SampleDistortedBoundingBoxV2/min_object_covered"
      op: "Const"
      attr {
        key: "dtype"
        value {
          type: DT_FLOAT
        }
      }
      attr {
        key: "value"
        value {
          tensor {
            dtype: DT_FLOAT
            tensor_shape {
            }
            float_val: 0.10000000149
          }
        }
      }
    }
    node_def {
      name: "sample_distorted_bounding_box/SampleDistortedBoundingBoxV2"
      op: "SampleDistortedBoundingBoxV2"
      input: "ExtractJpegShape:image_shape:0"
      input: "transpose:y:0"
      input: "sample_distorted_bounding_box/SampleDistortedBoundingBoxV2/min_object_covered:output:0"
      attr {
        key: "T"
        value {
          type: DT_INT32
        }
      }
      attr {
        key: "area_range"
        value {
          list {
            f: 0.0500000007451
            f: 1.0
          }
        }
      }
      attr {
        key: "aspect_ratio_range"
        value {
          list {
            f: 0.75
            f: 1.33000004292
          }
        }
      }
      attr {
        key: "max_attempts"
        value {
          i: 100
        }
      }
      attr {
        key: "seed"
        value {
          i: 0
        }
      }
      attr {
        key: "seed2"
        value {
          i: 0
        }
      }
      attr {
        key: "use_image_if_no_bounding_boxes"
        value {
          b: true
        }
      }
    }
    node_def {
      name: "unstack"
      op: "Unpack"
      input: "sample_distorted_bounding_box/SampleDistortedBoundingBoxV2:begin:0"
      attr {
        key: "T"
        value {
          type: DT_INT32
        }
      }
      attr {
        key: "axis"
        value {
          i: 0
        }
      }
      attr {
        key: "num"
        value {
          i: 3
        }
      }
    }
    node_def {
      name: "unstack_1"
      op: "Unpack"
      input: "sample_distorted_bounding_box/SampleDistortedBoundingBoxV2:size:0"
      attr {
        key: "T"
        value {
          type: DT_INT32
        }
      }
      attr {
        key: "axis"
        value {
          i: 0
        }
      }
      attr {
        key: "num"
        value {
          i: 3
        }
      }
    }
    node_def {
      name: "stack"
      op: "Pack"
      input: "unstack:output:0"
      input: "unstack:output:1"
      input: "unstack_1:output:0"
      input: "unstack_1:output:1"
      attr {
        key: "N"
        value {
          i: 4
        }
      }
      attr {
        key: "T"
        value {
          type: DT_INT32
        }
      }
      attr {
        key: "axis"
        value {
          i: 0
        }
      }
    }
    node_def {
      name: "DecodeAndCropJpeg"
      op: "DecodeAndCropJpeg"
      input: "ParseSingleExample/ParseSingleExample:dense_values:2"
      input: "stack:output:0"
      attr {
        key: "acceptable_fraction"
        value {
          f: 1.0
        }
      }
      attr {
        key: "channels"
        value {
          i: 3
        }
      }
      attr {
        key: "dct_method"
        value {
          s: ""
        }
      }
      attr {
        key: "fancy_upscaling"
        value {
          b: true
        }
      }
      attr {
        key: "ratio"
        value {
          i: 1
        }
      }
      attr {
        key: "try_recover_truncated"
        value {
          b: false
        }
      }
    }
    node_def {
      name: "random_flip_left_right/Shape"
      op: "Shape"
      input: "DecodeAndCropJpeg:image:0"
      attr {
        key: "T"
        value {
          type: DT_UINT8
        }
      }
      attr {
        key: "out_type"
        value {
          type: DT_INT32
        }
      }
    }
    node_def {
      name: "random_flip_left_right/assert_positive/Const"
      op: "Const"
      attr {
        key: "dtype"
        value {
          type: DT_INT32
        }
      }
      attr {
        key: "value"
        value {
          tensor {
            dtype: DT_INT32
            tensor_shape {
            }
            int_val: 0
          }
        }
      }
    }
    node_def {
      name: "random_flip_left_right/assert_positive/assert_less/Less"
      op: "Less"
      input: "random_flip_left_right/assert_positive/Const:output:0"
      input: "random_flip_left_right/Shape:output:0"
      attr {
        key: "T"
        value {
          type: DT_INT32
        }
      }
    }
    node_def {
      name: "random_flip_left_right/assert_positive/assert_less/Const"
      op: "Const"
      attr {
        key: "dtype"
        value {
          type: DT_INT32
        }
      }
      attr {
        key: "value"
        value {
          tensor {
            dtype: DT_INT32
            tensor_shape {
              dim {
                size: 1
              }
            }
            int_val: 0
          }
        }
      }
    }
    node_def {
      name: "random_flip_left_right/assert_positive/assert_less/All"
      op: "All"
      input: "random_flip_left_right/assert_positive/assert_less/Less:z:0"
      input: "random_flip_left_right/assert_positive/assert_less/Const:output:0"
      attr {
        key: "Tidx"
        value {
          type: DT_INT32
        }
      }
      attr {
        key: "keep_dims"
        value {
          b: false
        }
      }
    }
    node_def {
      name: "random_flip_left_right/assert_positive/assert_less/Assert/Const"
      op: "Const"
      attr {
        key: "dtype"
        value {
          type: DT_STRING
        }
      }
      attr {
        key: "value"
        value {
          tensor {
            dtype: DT_STRING
            tensor_shape {
            }
            string_val: "all dims of \'image.shape\' must be > 0."
          }
        }
      }
    }
    node_def {
      name: "random_flip_left_right/assert_positive/assert_less/Assert/Assert/data_0"
      op: "Const"
      attr {
        key: "dtype"
        value {
          type: DT_STRING
        }
      }
      attr {
        key: "value"
        value {
          tensor {
            dtype: DT_STRING
            tensor_shape {
            }
            string_val: "all dims of \'image.shape\' must be > 0."
          }
        }
      }
    }
    node_def {
      name: "random_flip_left_right/assert_positive/assert_less/Assert/Assert"
      op: "Assert"
      input: "random_flip_left_right/assert_positive/assert_less/All:output:0"
      input: "random_flip_left_right/assert_positive/assert_less/Assert/Assert/data_0:output:0"
      attr {
        key: "T"
        value {
          list {
            type: DT_STRING
          }
        }
      }
      attr {
        key: "summarize"
        value {
          i: 3
        }
      }
    }
    node_def {
      name: "random_flip_left_right/control_dependency"
      op: "Identity"
      input: "DecodeAndCropJpeg:image:0"
      input: "^random_flip_left_right/assert_positive/assert_less/Assert/Assert"
      attr {
        key: "T"
        value {
          type: DT_UINT8
        }
      }
      attr {
        key: "_class"
        value {
          list {
            s: "loc:@DecodeAndCropJpeg"
          }
        }
      }
    }
    node_def {
      name: "random_flip_left_right/random_uniform/shape"
      op: "Const"
      attr {
        key: "dtype"
        value {
          type: DT_INT32
        }
      }
      attr {
        key: "value"
        value {
          tensor {
            dtype: DT_INT32
            tensor_shape {
              dim {
              }
            }
          }
        }
      }
    }
    node_def {
      name: "random_flip_left_right/random_uniform/min"
      op: "Const"
      attr {
        key: "dtype"
        value {
          type: DT_FLOAT
        }
      }
      attr {
        key: "value"
        value {
          tensor {
            dtype: DT_FLOAT
            tensor_shape {
            }
            float_val: 0.0
          }
        }
      }
    }
    node_def {
      name: "random_flip_left_right/random_uniform/max"
      op: "Const"
      attr {
        key: "dtype"
        value {
          type: DT_FLOAT
        }
      }
      attr {
        key: "value"
        value {
          tensor {
            dtype: DT_FLOAT
            tensor_shape {
            }
            float_val: 1.0
          }
        }
      }
    }
    node_def {
      name: "random_flip_left_right/random_uniform/RandomUniform"
      op: "RandomUniform"
      input: "random_flip_left_right/random_uniform/shape:output:0"
      attr {
        key: "T"
        value {
          type: DT_INT32
        }
      }
      attr {
        key: "dtype"
        value {
          type: DT_FLOAT
        }
      }
      attr {
        key: "seed"
        value {
          i: 0
        }
      }
      attr {
        key: "seed2"
        value {
          i: 0
        }
      }
    }
    node_def {
      name: "random_flip_left_right/random_uniform/sub"
      op: "Sub"
      input: "random_flip_left_right/random_uniform/max:output:0"
      input: "random_flip_left_right/random_uniform/min:output:0"
      attr {
        key: "T"
        value {
          type: DT_FLOAT
        }
      }
    }
    node_def {
      name: "random_flip_left_right/random_uniform/mul"
      op: "Mul"
      input: "random_flip_left_right/random_uniform/RandomUniform:output:0"
      input: "random_flip_left_right/random_uniform/sub:z:0"
      attr {
        key: "T"
        value {
          type: DT_FLOAT
        }
      }
    }
    node_def {
      name: "random_flip_left_right/random_uniform"
      op: "Add"
      input: "random_flip_left_right/random_uniform/mul:z:0"
      input: "random_flip_left_right/random_uniform/min:output:0"
      attr {
        key: "T"
        value {
          type: DT_FLOAT
        }
      }
    }
    node_def {
      name: "random_flip_left_right/Less/y"
      op: "Const"
      attr {
        key: "dtype"
        value {
          type: DT_FLOAT
        }
      }
      attr {
        key: "value"
        value {
          tensor {
            dtype: DT_FLOAT
            tensor_shape {
            }
            float_val: 0.5
          }
        }
      }
    }
    node_def {
      name: "random_flip_left_right/Less"
      op: "Less"
      input: "random_flip_left_right/random_uniform:z:0"
      input: "random_flip_left_right/Less/y:output:0"
      attr {
        key: "T"
        value {
          type: DT_FLOAT
        }
      }
    }
    node_def {
      name: "random_flip_left_right/Switch"
      op: "Switch"
      input: "random_flip_left_right/Less:z:0"
      input: "random_flip_left_right/Less:z:0"
      attr {
        key: "T"
        value {
          type: DT_BOOL
        }
      }
    }
    node_def {
      name: "random_flip_left_right/switch_t"
      op: "Identity"
      input: "random_flip_left_right/Switch:output_true:0"
      attr {
        key: "T"
        value {
          type: DT_BOOL
        }
      }
    }
    node_def {
      name: "random_flip_left_right/switch_f"
      op: "Identity"
      input: "random_flip_left_right/Switch:output_false:0"
      attr {
        key: "T"
        value {
          type: DT_BOOL
        }
      }
    }
    node_def {
      name: "random_flip_left_right/pred_id"
      op: "Identity"
      input: "random_flip_left_right/Less:z:0"
      attr {
        key: "T"
        value {
          type: DT_BOOL
        }
      }
    }
    node_def {
      name: "random_flip_left_right/ReverseV2/axis"
      op: "Const"
      input: "^random_flip_left_right/switch_t"
      attr {
        key: "dtype"
        value {
          type: DT_INT32
        }
      }
      attr {
        key: "value"
        value {
          tensor {
            dtype: DT_INT32
            tensor_shape {
              dim {
                size: 1
              }
            }
            int_val: 1
          }
        }
      }
    }
    node_def {
      name: "random_flip_left_right/ReverseV2"
      op: "ReverseV2"
      input: "random_flip_left_right/ReverseV2/Switch:output_true:0"
      input: "random_flip_left_right/ReverseV2/axis:output:0"
      attr {
        key: "T"
        value {
          type: DT_UINT8
        }
      }
      attr {
        key: "Tidx"
        value {
          type: DT_INT32
        }
      }
    }
    node_def {
      name: "random_flip_left_right/ReverseV2/Switch"
      op: "Switch"
      input: "random_flip_left_right/control_dependency:output:0"
      input: "random_flip_left_right/pred_id:output:0"
      attr {
        key: "T"
        value {
          type: DT_UINT8
        }
      }
      attr {
        key: "_class"
        value {
          list {
            s: "loc:@DecodeAndCropJpeg"
          }
        }
      }
    }
    node_def {
      name: "random_flip_left_right/Switch_1"
      op: "Switch"
      input: "random_flip_left_right/control_dependency:output:0"
      input: "random_flip_left_right/pred_id:output:0"
      attr {
        key: "T"
        value {
          type: DT_UINT8
        }
      }
      attr {
        key: "_class"
        value {
          list {
            s: "loc:@DecodeAndCropJpeg"
          }
        }
      }
    }
    node_def {
      name: "random_flip_left_right/Merge"
      op: "Merge"
      input: "random_flip_left_right/Switch_1:output_false:0"
      input: "random_flip_left_right/ReverseV2:output:0"
      attr {
        key: "N"
        value {
          i: 2
        }
      }
      attr {
        key: "T"
        value {
          type: DT_UINT8
        }
      }
    }
    node_def {
      name: "resize_images/ExpandDims/dim"
      op: "Const"
      attr {
        key: "dtype"
        value {
          type: DT_INT32
        }
      }
      attr {
        key: "value"
        value {
          tensor {
            dtype: DT_INT32
            tensor_shape {
            }
            int_val: 0
          }
        }
      }
    }
    node_def {
      name: "resize_images/ExpandDims"
      op: "ExpandDims"
      input: "random_flip_left_right/Merge:output:0"
      input: "resize_images/ExpandDims/dim:output:0"
      attr {
        key: "T"
        value {
          type: DT_UINT8
        }
      }
      attr {
        key: "Tdim"
        value {
          type: DT_INT32
        }
      }
    }
    node_def {
      name: "resize_images/size"
      op: "Const"
      attr {
        key: "dtype"
        value {
          type: DT_INT32
        }
      }
      attr {
        key: "value"
        value {
          tensor {
            dtype: DT_INT32
            tensor_shape {
              dim {
                size: 2
              }
            }
            tensor_content: "\340\000\000\000\340\000\000\000"
          }
        }
      }
    }
    node_def {
      name: "resize_images/ResizeBilinear"
      op: "ResizeBilinear"
      input: "resize_images/ExpandDims:output:0"
      input: "resize_images/size:output:0"
      attr {
        key: "T"
        value {
          type: DT_UINT8
        }
      }
      attr {
        key: "align_corners"
        value {
          b: false
        }
      }
    }
    node_def {
      name: "resize_images/Squeeze"
      op: "Squeeze"
      input: "resize_images/ResizeBilinear:resized_images:0"
      attr {
        key: "T"
        value {
          type: DT_FLOAT
        }
      }
      attr {
        key: "squeeze_dims"
        value {
          list {
            i: 0
          }
        }
      }
    }
    node_def {
      name: "ExpandDims_5/input"
      op: "Const"
      attr {
        key: "dtype"
        value {
          type: DT_FLOAT
        }
      }
      attr {
        key: "value"
        value {
          tensor {
            dtype: DT_FLOAT
            tensor_shape {
              dim {
                size: 3
              }
            }
            tensor_content: ")\\\367B\\\217\351BH\341\317B"
          }
        }
      }
    }
    node_def {
      name: "ExpandDims_5/dim"
      op: "Const"
      attr {
        key: "dtype"
        value {
          type: DT_INT32
        }
      }
      attr {
        key: "value"
        value {
          tensor {
            dtype: DT_INT32
            tensor_shape {
            }
            int_val: 0
          }
        }
      }
    }
    node_def {
      name: "ExpandDims_5"
      op: "ExpandDims"
      input: "ExpandDims_5/input:output:0"
      input: "ExpandDims_5/dim:output:0"
      attr {
        key: "T"
        value {
          type: DT_FLOAT
        }
      }
      attr {
        key: "Tdim"
        value {
          type: DT_INT32
        }
      }
    }
    node_def {
      name: "ExpandDims_6/dim"
      op: "Const"
      attr {
        key: "dtype"
        value {
          type: DT_INT32
        }
      }
      attr {
        key: "value"
        value {
          tensor {
            dtype: DT_INT32
            tensor_shape {
            }
            int_val: 0
          }
        }
      }
    }
    node_def {
      name: "ExpandDims_6"
      op: "ExpandDims"
      input: "ExpandDims_5:output:0"
      input: "ExpandDims_6/dim:output:0"
      attr {
        key: "T"
        value {
          type: DT_FLOAT
        }
      }
      attr {
        key: "Tdim"
        value {
          type: DT_INT32
        }
      }
    }
    node_def {
      name: "sub"
      op: "Sub"
      input: "resize_images/Squeeze:output:0"
      input: "ExpandDims_6:output:0"
      attr {
        key: "T"
        value {
          type: DT_FLOAT
        }
      }
    }
    node_def {
      name: "Reshape/shape"
      op: "Const"
      attr {
        key: "dtype"
        value {
          type: DT_INT32
        }
      }
      attr {
        key: "value"
        value {
          tensor {
            dtype: DT_INT32
            tensor_shape {
              dim {
              }
            }
          }
        }
      }
    }
    node_def {
      name: "Reshape"
      op: "Reshape"
      input: "Cast:y:0"
      input: "Reshape/shape:output:0"
      attr {
        key: "T"
        value {
          type: DT_INT32
        }
      }
      attr {
        key: "Tshape"
        value {
          type: DT_INT32
        }
      }
    }
    node_def {
      name: "one_hot/on_value"
      op: "Const"
      attr {
        key: "dtype"
        value {
          type: DT_FLOAT
        }
      }
      attr {
        key: "value"
        value {
          tensor {
            dtype: DT_FLOAT
            tensor_shape {
            }
            float_val: 1.0
          }
        }
      }
    }
    node_def {
      name: "one_hot/off_value"
      op: "Const"
      attr {
        key: "dtype"
        value {
          type: DT_FLOAT
        }
      }
      attr {
        key: "value"
        value {
          tensor {
            dtype: DT_FLOAT
            tensor_shape {
            }
            float_val: 0.0
          }
        }
      }
    }
    node_def {
      name: "one_hot/depth"
      op: "Const"
      attr {
        key: "dtype"
        value {
          type: DT_INT32
        }
      }
      attr {
        key: "value"
        value {
          tensor {
            dtype: DT_INT32
            tensor_shape {
            }
            int_val: 1001
          }
        }
      }
    }
    node_def {
      name: "one_hot"
      op: "OneHot"
      input: "Reshape:output:0"
      input: "one_hot/depth:output:0"
      input: "one_hot/on_value:output:0"
      input: "one_hot/off_value:output:0"
      attr {
        key: "T"
        value {
          type: DT_FLOAT
        }
      }
      attr {
        key: "TI"
        value {
          type: DT_INT32
        }
      }
      attr {
        key: "axis"
        value {
          i: -1
        }
      }
    }
    ret {
      key: "one_hot"
      value: "one_hot:output:0"
    }
    ret {
      key: "sub"
      value: "sub:z:0"
    }
  }
}
versions {
  producer: 26
  min_consumer: 12
}
